#map = affine_map<(d0) -> (d0 + 64)>
#map1 = affine_map<(d0) -> (d0 + 128)>
#map2 = affine_map<(d0, d1, d2) -> (d0 * 4096 + d1 * 64 + d2 * 16)>
#map3 = affine_map<(d0, d1, d2) -> (d0 * 4096 + d1 * 16 + d2 * 1024)>
#map4 = affine_map<(d0, d1, d2) -> (d0 * 4096 + d1 * 1024 + d2 * 16)>
#map5 = affine_map<(d0, d1, d2) -> (d0 * 4096 + d1 * 16 + d2 * 64)>
module attributes {llvm.data_layout = "e-m:e-p270:32:32-p271:32:32-p272:64:64-i64:64-f80:128-n8:16:32:64-S128", llvm.target_triple = "x86_64-pc-linux-gnu", "onnx-mlir.symbol-postfix" = "nanogpt.mlir"} {
  func.func @main_graph(%arg0: memref<1x64xi64>) -> memref<1x64x65xf32> attributes {input_names = ["input"], llvm.emit_c_interface, output_names = ["output"]} {
    %cst = arith.constant 6.400000e+01 : f32
    %c16_i64 = arith.constant 16 : i64
    %cst_0 = arith.constant 0xFF800000 : f32
    %cst_1 = arith.constant 0.000000e+00 : f32
    %c0 = arith.constant 0 : index
    %c65 = arith.constant 65 : index
    %0 = "krnl.global"() {name = "constant_0", shape = [1, 64, 64], value = dense<"…"> : tensor<1x64x64xf32>} : () -> memref<1x64x64xf32>
    %1 = "krnl.global"() {name = "constant_1", shape = [], value = dense<9.99999974E-6> : tensor<f32>} : () -> memref<f32>
    %2 = "krnl.global"() {name = "constant_2", shape = [], value = dense<1.000000e+00> : tensor<f32>} : () -> memref<f32>
    %3 = "krnl.global"() {name = "constant_3", shape = [], value = dense<0.797884583> : tensor<f32>} : () -> memref<f32>
    %4 = "krnl.global"() {name = "constant_4", shape = [], value = dense<4.471500e-02> : tensor<f32>} : () -> memref<f32>
    %5 = "krnl.global"() {name = "constant_5", shape = [], value = dense<5.000000e-01> : tensor<f32>} : () -> memref<f32>
    %6 = "krnl.global"() {name = "constant_6", shape = [], value = dense<9.99999974E-6> : tensor<f32>} : () -> memref<f32>
    %7 = "krnl.global"() {name = "constant_8", shape = [], value = dense<-1.000000e+01> : tensor<f32>} : () -> memref<f32>
    %8 = "krnl.global"() {name = "constant_9", shape = [], value = dense<2.500000e-01> : tensor<f32>} : () -> memref<f32>
    %9 = "krnl.global"() {name = "constant_13", shape = [], value = dense<9.99999974E-6> : tensor<f32>} : () -> memref<f32>
    %10 = "krnl.global"() {name = "constant_14", shape = [], value = dense<1.000000e+00> : tensor<f32>} : () -> memref<f32>
    %11 = "krnl.global"() {name = "constant_15", shape = [], value = dense<0.797884583> : tensor<f32>} : () -> memref<f32>
    %12 = "krnl.global"() {name = "constant_16", shape = [], value = dense<4.471500e-02> : tensor<f32>} : () -> memref<f32>
    %13 = "krnl.global"() {name = "constant_17", shape = [], value = dense<5.000000e-01> : tensor<f32>} : () -> memref<f32>
    %14 = "krnl.global"() {name = "constant_18", shape = [], value = dense<9.99999974E-6> : tensor<f32>} : () -> memref<f32>
    %15 = "krnl.global"() {name = "constant_20", shape = [], value = dense<-1.000000e+01> : tensor<f32>} : () -> memref<f32>
    %16 = "krnl.global"() {name = "constant_21", shape = [], value = dense<2.500000e-01> : tensor<f32>} : () -> memref<f32>
    %17 = "krnl.global"() {name = "constant_25", shape = [], value = dense<9.99999974E-6> : tensor<f32>} : () -> memref<f32>
    %18 = "krnl.global"() {name = "constant_26", shape = [], value = dense<1.000000e+00> : tensor<f32>} : () -> memref<f32>
    %19 = "krnl.global"() {name = "constant_27", shape = [], value = dense<0.797884583> : tensor<f32>} : () -> memref<f32>
    %20 = "krnl.global"() {name = "constant_28", shape = [], value = dense<4.471500e-02> : tensor<f32>} : () -> memref<f32>
    %21 = "krnl.global"() {name = "constant_29", shape = [], value = dense<5.000000e-01> : tensor<f32>} : () -> memref<f32>
    %22 = "krnl.global"() {name = "constant_30", shape = [], value = dense<9.99999974E-6> : tensor<f32>} : () -> memref<f32>
    %23 = "krnl.global"() {name = "constant_32", shape = [], value = dense<-1.000000e+01> : tensor<f32>} : () -> memref<f32>
    %24 = "krnl.global"() {name = "constant_33", shape = [], value = dense<2.500000e-01> : tensor<f32>} : () -> memref<f32>
    %25 = "krnl.global"() {name = "constant_37", shape = [], value = dense<9.99999974E-6> : tensor<f32>} : () -> memref<f32>
    %26 = "krnl.global"() {name = "constant_38", shape = [], value = dense<1.000000e+00> : tensor<f32>} : () -> memref<f32>
    %27 = "krnl.global"() {name = "constant_39", shape = [], value = dense<0.797884583> : tensor<f32>} : () -> memref<f32>
    %28 = "krnl.global"() {name = "constant_40", shape = [], value = dense<4.471500e-02> : tensor<f32>} : () -> memref<f32>
    %29 = "krnl.global"() {name = "constant_41", shape = [], value = dense<5.000000e-01> : tensor<f32>} : () -> memref<f32>
    %30 = "krnl.global"() {name = "constant_42", shape = [], value = dense<9.99999974E-6> : tensor<f32>} : () -> memref<f32>
    %31 = "krnl.global"() {name = "constant_44", shape = [], value = dense<-1.000000e+01> : tensor<f32>} : () -> memref<f32>
    %32 = "krnl.global"() {name = "constant_45", shape = [], value = dense<2.500000e-01> : tensor<f32>} : () -> memref<f32>
    %33 = "krnl.global"() {name = "constant_50", shape = [], value = dense<9.99999974E-6> : tensor<f32>} : () -> memref<f32>
    %34 = "krnl.global"() {name = "constant_51", shape = [65, 64], value = dense<"…"> : tensor<65x64xf32>} : () -> memref<65x64xf32>
    %35 = "krnl.global"() {name = "constant_52", shape = [64, 192], value = dense<"…"> : tensor<64x192xf32>} : () -> memref<64x192xf32>
    %36 = "krnl.global"() {name = "constant_53", shape = [1, 1, 64, 64], value = dense<"…"> : tensor<1x1x64x64xi1>} : () -> memref<1x1x64x64xi1>
    %37 = "krnl.global"() {name = "constant_54", shape = [64, 64], value = dense<"…"> : tensor<64x64xf32>} : () -> memref<64x64xf32>
    %38 = "krnl.global"() {name = "constant_55", shape = [64, 256], value = dense<"…"> : tensor<64x256xf32>} : () -> memref<64x256xf32>
    %39 = "krnl.global"() {name = "constant_56", shape = [256, 64], value = dense<"…"> : tensor<256x64xf32>} : () -> memref<256x64xf32>
    %40 = "krnl.global"() {name = "constant_57", shape = [64, 192], value = dense<"…"> : tensor<64x192xf32>} : () -> memref<64x192xf32>
    %41 = "krnl.global"() {name = "constant_58", shape = [64, 64], value = dense<"…"> : tensor<64x64xf32>} : () -> memref<64x64xf32>
    %42 = "krnl.global"() {name = "constant_59", shape = [64, 256], value = dense<"…"> : tensor<64x256xf32>} : () -> memref<64x256xf32>
    %43 = "krnl.global"() {name = "constant_60", shape = [256, 64], value = dense<"…"> : tensor<256x64xf32>} : () -> memref<256x64xf32>
    %44 = "krnl.global"() {name = "constant_61", shape = [64, 192], value = dense<"…"> : tensor<64x192xf32>} : () -> memref<64x192xf32>
    %45 = "krnl.global"() {name = "constant_62", shape = [64, 64], value = dense<"…"> : tensor<64x64xf32>} : () -> memref<64x64xf32>
    %46 = "krnl.global"() {name = "constant_63", shape = [64, 256], value = dense<"…"> : tensor<64x256xf32>} : () -> memref<64x256xf32>
    %47 = "krnl.global"() {name = "constant_64", shape = [256, 64], value = dense<"…"> : tensor<256x64xf32>} : () -> memref<256x64xf32>
    %48 = "krnl.global"() {name = "constant_65", shape = [64, 192], value = dense<"…"> : tensor<64x192xf32>} : () -> memref<64x192xf32>
    %49 = "krnl.global"() {name = "constant_66", shape = [64, 64], value = dense<"…"> : tensor<64x64xf32>} : () -> memref<64x64xf32>
    %50 = "krnl.global"() {name = "constant_67", shape = [64, 256], value = dense<"…"> : tensor<64x256xf32>} : () -> memref<64x256xf32>
    %51 = "krnl.global"() {name = "constant_68", shape = [256, 64], value = dense<"…"> : tensor<256x64xf32>} : () -> memref<256x64xf32>
    %52 = "krnl.global"() {name = "constant_69", shape = [64, 65], value = dense<"…"> : tensor<64x65xf32>} : () -> memref<64x65xf32>
    %alloc = memref.alloc() {alignment = 16 : i64} : memref<1x64x64xf32>
    affine.for %arg1 = 0 to 1 {
      affine.for %arg2 = 0 to 64 {
        affine.for %arg3 = 0 to 64 {
          %53 = affine.load %arg0[%arg1, %arg2] : memref<1x64xi64>
          %54 = arith.index_cast %53 : i64 to index
          %55 = arith.cmpi slt, %54, %c0 : index
          %56 = arith.addi %54, %c65 : index
          %57 = arith.select %55, %56, %54 : index
          %58 = memref.load %34[%57, %arg3] : memref<65x64xf32>
          affine.store %58, %alloc[%arg1, %arg2, %arg3] : memref<1x64x64xf32>
        }
      }
    }
    %alloc_2 = memref.alloc() {alignment = 16 : i64} : memref<1x64x64xf32>
    affine.for %arg1 = 0 to 1 {
      affine.for %arg2 = 0 to 64 {
        affine.for %arg3 = 0 to 64 {
          %53 = affine.load %alloc[%c0, %arg2, %arg3] : memref<1x64x64xf32>
          %54 = affine.load %0[%c0, %arg2, %arg3] : memref<1x64x64xf32>
          %55 = arith.addf %53, %54 : f32
          affine.store %55, %alloc_2[%arg1, %arg2, %arg3] : memref<1x64x64xf32>
        }
      }
    }
    %alloc_3 = memref.alloc() {alignment = 16 : i64} : memref<1x64x1xf32>
    affine.for %arg1 = 0 to 1 {
      affine.for %arg2 = 0 to 64 {
        affine.for %arg3 = 0 to 1 {
          affine.store %cst_1, %alloc_3[%arg1, %arg2, %arg3] : memref<1x64x1xf32>
        }
      }
    }
    affine.for %arg1 = 0 to 1 {
      affine.for %arg2 = 0 to 64 {
        affine.for %arg3 = 0 to 64 {
          %53 = affine.load %alloc_2[%arg1, %arg2, %arg3] : memref<1x64x64xf32>
          %54 = affine.load %alloc_3[%arg1, %arg2, %c0] : memref<1x64x1xf32>
          %55 = arith.addf %54, %53 : f32
          affine.store %55, %alloc_3[%arg1, %arg2, %c0] : memref<1x64x1xf32>
        }
      }
    }
    affine.for %arg1 = 0 to 1 {
      affine.for %arg2 = 0 to 64 {
        affine.for %arg3 = 0 to 1 {
          %53 = affine.load %alloc_3[%arg1, %arg2, %arg3] : memref<1x64x1xf32>
          %54 = arith.divf %53, %cst : f32
          affine.store %54, %alloc_3[%arg1, %arg2, %arg3] : memref<1x64x1xf32>
        }
      }
    }
    %alloc_4 = memref.alloc() {alignment = 16 : i64} : memref<1x64x64xf32>
    affine.for %arg1 = 0 to 1 {
      affine.for %arg2 = 0 to 64 {
        affine.for %arg3 = 0 to 64 {
          %53 = affine.load %alloc_2[%c0, %arg2, %arg3] : memref<1x64x64xf32>
          %54 = affine.load %alloc_3[%c0, %arg2, %c0] : memref<1x64x1xf32>
          %55 = arith.subf %53, %54 : f32
          affine.store %55, %alloc_4[%arg1, %arg2, %arg3] : memref<1x64x64xf32>
        }
      }
    }
    %alloc_5 = memref.alloc() {alignment = 16 : i64} : memref<1x64x64xf32>
    affine.for %arg1 = 0 to 1 {
      affine.for %arg2 = 0 to 64 {
        affine.for %arg3 = 0 to 64 {
          %53 = affine.load %alloc_4[%c0, %arg2, %arg3] : memref<1x64x64xf32>
          %54 = affine.load %alloc_4[%c0, %arg2, %arg3] : memref<1x64x64xf32>
          %55 = arith.mulf %53, %54 : f32
          affine.store %55, %alloc_5[%arg1, %arg2, %arg3] : memref<1x64x64xf32>
        }
      }
    }
    %alloc_6 = memref.alloc() {alignment = 16 : i64} : memref<1x64x1xf32>
    affine.for %arg1 = 0 to 1 {
      affine.for %arg2 = 0 to 64 {
        affine.for %arg3 = 0 to 1 {
          affine.store %cst_1, %alloc_6[%arg1, %arg2, %arg3] : memref<1x64x1xf32>
        }
      }
    }
    affine.for %arg1 = 0 to 1 {
      affine.for %arg2 = 0 to 64 {
        affine.for %arg3 = 0 to 64 {
          %53 = affine.load %alloc_5[%arg1, %arg2, %arg3] : memref<1x64x64xf32>
          %54 = affine.load %alloc_6[%arg1, %arg2, %c0] : memref<1x64x1xf32>
          %55 = arith.addf %54, %53 : f32
          affine.store %55, %alloc_6[%arg1, %arg2, %c0] : memref<1x64x1xf32>
        }
      }
    }
    affine.for %arg1 = 0 to 1 {
      affine.for %arg2 = 0 to 64 {
        affine.for %arg3 = 0 to 1 {
          %53 = affine.load %alloc_6[%arg1, %arg2, %arg3] : memref<1x64x1xf32>
          %54 = arith.divf %53, %cst : f32
          affine.store %54, %alloc_6[%arg1, %arg2, %arg3] : memref<1x64x1xf32>
        }
      }
    }
    %alloc_7 = memref.alloc() {alignment = 16 : i64} : memref<1x64x1xf32>
    affine.for %arg1 = 0 to 1 {
      affine.for %arg2 = 0 to 64 {
        affine.for %arg3 = 0 to 1 {
          %53 = affine.load %alloc_6[%c0, %arg2, %c0] : memref<1x64x1xf32>
          %54 = affine.load %33[] : memref<f32>
          %55 = arith.addf %53, %54 : f32
          %56 = math.sqrt %55 : f32
          affine.store %56, %alloc_7[%arg1, %arg2, %arg3] : memref<1x64x1xf32>
        }
      }
    }
    %alloc_8 = memref.alloc() {alignment = 16 : i64} : memref<1x64x64xf32>
    affine.for %arg1 = 0 to 1 {
      affine.for %arg2 = 0 to 64 {
        affine.for %arg3 = 0 to 64 {
          %53 = affine.load %alloc_4[%c0, %arg2, %arg3] : memref<1x64x64xf32>
          %54 = affine.load %alloc_7[%c0, %arg2, %c0] : memref<1x64x1xf32>
          %55 = arith.divf %53, %54 : f32
          affine.store %55, %alloc_8[%arg1, %arg2, %arg3] : memref<1x64x64xf32>
        }
      }
    }
    %alloc_9 = memref.alloc() {alignment = 16 : i64} : memref<1x64x192xf32>
    %alloca = memref.alloca() : memref<f32>
    affine.for %arg1 = 0 to 1 {
      affine.for %arg2 = 0 to 64 {
        affine.for %arg3 = 0 to 192 {
          affine.store %cst_1, %alloca[] : memref<f32>
          affine.for %arg4 = 0 to 64 {
            %54 = affine.load %alloc_8[%arg1, %arg2, %arg4] : memref<1x64x64xf32>
            %55 = affine.load %35[%arg4, %arg3] : memref<64x192xf32>
            %56 = affine.load %alloca[] : memref<f32>
            %57 = arith.mulf %54, %55 : f32
            %58 = arith.addf %56, %57 : f32
            affine.store %58, %alloca[] : memref<f32>
          }
          %53 = affine.load %alloca[] : memref<f32>
          affine.store %53, %alloc_9[%arg1, %arg2, %arg3] : memref<1x64x192xf32>
        }
      }
    }
    %alloc_10 = memref.alloc() {alignment = 16 : i64} : memref<1x64x64xf32>
    %alloc_11 = memref.alloc() {alignment = 16 : i64} : memref<1x64x64xf32>
    %alloc_12 = memref.alloc() {alignment = 16 : i64} : memref<1x64x64xf32>
    affine.for %arg1 = 0 to 1 {
      affine.for %arg2 = 0 to 64 {
        affine.for %arg3 = 0 to 64 {
          %53 = affine.load %alloc_9[%arg1, %arg2, %arg3] : memref<1x64x192xf32>
          affine.store %53, %alloc_10[%arg1, %arg2, %arg3] : memref<1x64x64xf32>
        }
      }
    }
    affine.for %arg1 = 0 to 1 {
      affine.for %arg2 = 0 to 64 {
        affine.for %arg3 = 0 to 64 {
          %53 = affine.apply #map(%arg3)
          %54 = affine.load %alloc_9[%arg1, %arg2, %53] : memref<1x64x192xf32>
          affine.store %54, %alloc_11[%arg1, %arg2, %arg3] : memref<1x64x64xf32>
        }
      }
    }
    affine.for %arg1 = 0 to 1 {
      affine.for %arg2 = 0 to 64 {
        affine.for %arg3 = 0 to 64 {
          %53 = affine.apply #map1(%arg3)
          %54 = affine.load %alloc_9[%arg1, %arg2, %53] : memref<1x64x192xf32>
          affine.store %54, %alloc_12[%arg1, %arg2, %arg3] : memref<1x64x64xf32>
        }
      }
    }
    %reinterpret_cast = memref.reinterpret_cast %alloc_11 to offset: [0], sizes: [1, 64, 4, 16], strides: [4096, 64, 16, 1] : memref<1x64x64xf32> to memref<1x64x4x16xf32>
    %reinterpret_cast_13 = memref.reinterpret_cast %alloc_10 to offset: [0], sizes: [1, 64, 4, 16], strides: [4096, 64, 16, 1] : memref<1x64x64xf32> to memref<1x64x4x16xf32>
    %alloc_14 = memref.alloc() {alignment = 16 : i64} : memref<1x4x64x16xf32>
    affine.for %arg1 = 0 to 1 {
      affine.for %arg2 = 0 to 64 {
        affine.for %arg3 = 0 to 4 {
          %53 = affine.apply #map2(%arg1, %arg2, %arg3)
          %54 = affine.apply #map3(%arg1, %arg2, %arg3)
          "krnl.memcpy"(%alloc_14, %reinterpret_cast_13, %c16_i64, %54, %53) : (memref<1x4x64x16xf32>, memref<1x64x4x16xf32>, i64, index, index) -> ()
        }
      }
    }
    %reinterpret_cast_15 = memref.reinterpret_cast %alloc_12 to offset: [0], sizes: [1, 64, 4, 16], strides: [4096, 64, 16, 1] : memref<1x64x64xf32> to memref<1x64x4x16xf32>
    %alloc_16 = memref.alloc() {alignment = 16 : i64} : memref<1x4x64x16xf32>
    affine.for %arg1 = 0 to 1 {
      affine.for %arg2 = 0 to 64 {
        affine.for %arg3 = 0 to 4 {
          %53 = affine.apply #map2(%arg1, %arg2, %arg3)
          %54 = affine.apply #map3(%arg1, %arg2, %arg3)
          "krnl.memcpy"(%alloc_16, %reinterpret_cast_15, %c16_i64, %54, %53) : (memref<1x4x64x16xf32>, memref<1x64x4x16xf32>, i64, index, index) -> ()
        }
      }
    }
    %alloc_17 = memref.alloc() {alignment = 16 : i64} : memref<1x4x16x64xf32>
    affine.for %arg1 = 0 to 1 {
      affine.for %arg2 = 0 to 64 {
        affine.for %arg3 = 0 to 4 {
          affine.for %arg4 = 0 to 16 {
            %53 = affine.load %reinterpret_cast[%arg1, %arg2, %arg3, %arg4] : memref<1x64x4x16xf32>
            affine.store %53, %alloc_17[%arg1, %arg3, %arg4, %arg2] : memref<1x4x16x64xf32>
          }
        }
      }
    }
    %alloc_18 = memref.alloc() {alignment = 16 : i64} : memref<1x4x64x64xf32>
    %alloca_19 = memref.alloca() : memref<f32>
    affine.for %arg1 = 0 to 1 {
      affine.for %arg2 = 0 to 4 {
        affine.for %arg3 = 0 to 64 {
          affine.for %arg4 = 0 to 64 {
            affine.store %cst_1, %alloca_19[] : memref<f32>
            affine.for %arg5 = 0 to 16 {
              %54 = affine.load %alloc_14[%arg1, %arg2, %arg3, %arg5] : memref<1x4x64x16xf32>
              %55 = affine.load %alloc_17[%arg1, %arg2, %arg5, %arg4] : memref<1x4x16x64xf32>
              %56 = affine.load %alloca_19[] : memref<f32>
              %57 = arith.mulf %54, %55 : f32
              %58 = arith.addf %56, %57 : f32
              affine.store %58, %alloca_19[] : memref<f32>
            }
            %53 = affine.load %alloca_19[] : memref<f32>
            affine.store %53, %alloc_18[%arg1, %arg2, %arg3, %arg4] : memref<1x4x64x64xf32>
          }
        }
      }
    }
    %alloc_20 = memref.alloc() {alignment = 16 : i64} : memref<1x4x64x64xf32>
    affine.for %arg1 = 0 to 1 {
      affine.for %arg2 = 0 to 4 {
        affine.for %arg3 = 0 to 64 {
          affine.for %arg4 = 0 to 64 {
            %53 = affine.load %alloc_18[%c0, %arg2, %arg3, %arg4] : memref<1x4x64x64xf32>
            %54 = affine.load %32[] : memref<f32>
            %55 = arith.mulf %53, %54 : f32
            affine.store %55, %alloc_20[%arg1, %arg2, %arg3, %arg4] : memref<1x4x64x64xf32>
          }
        }
      }
    }
    %alloc_21 = memref.alloc() {alignment = 16 : i64} : memref<1x4x64x64xf32>
    affine.for %arg1 = 0 to 1 {
      affine.for %arg2 = 0 to 4 {
        affine.for %arg3 = 0 to 64 {
          affine.for %arg4 = 0 to 64 {
            %53 = affine.load %36[%c0, %c0, %arg3, %arg4] : memref<1x1x64x64xi1>
            %54 = affine.load %31[] : memref<f32>
            %55 = affine.load %alloc_20[%c0, %arg2, %arg3, %arg4] : memref<1x4x64x64xf32>
            %56 = arith.select %53, %54, %55 : f32
            affine.store %56, %alloc_21[%arg1, %arg2, %arg3, %arg4] : memref<1x4x64x64xf32>
          }
        }
      }
    }
    %alloc_22 = memref.alloc() {alignment = 16 : i64} : memref<1x4x64x64xf32>
    %alloc_23 = memref.alloc() : memref<f32>
    %alloc_24 = memref.alloc() : memref<f32>
    affine.for %arg1 = 0 to 1 {
      affine.for %arg2 = 0 to 4 {
        affine.for %arg3 = 0 to 64 {
          affine.store %cst_1, %alloc_23[] : memref<f32>
          affine.store %cst_0, %alloc_24[] : memref<f32>
          affine.for %arg4 = 0 to 64 {
            %55 = affine.load %alloc_24[] : memref<f32>
            %56 = affine.load %alloc_21[%arg1, %arg2, %arg3, %arg4] : memref<1x4x64x64xf32>
            %57 = arith.cmpf ogt, %55, %56 : f32
            %58 = arith.select %57, %55, %56 : f32
            affine.store %58, %alloc_24[] : memref<f32>
          }
          %53 = affine.load %alloc_24[] : memref<f32>
          affine.for %arg4 = 0 to 64 {
            %55 = affine.load %alloc_23[] : memref<f32>
            %56 = affine.load %alloc_21[%arg1, %arg2, %arg3, %arg4] : memref<1x4x64x64xf32>
            %57 = arith.subf %56, %53 : f32
            %58 = math.exp %57 : f32
            %59 = arith.addf %55, %58 : f32
            affine.store %59, %alloc_23[] : memref<f32>
            affine.store %58, %alloc_22[%arg1, %arg2, %arg3, %arg4] : memref<1x4x64x64xf32>
          }
          %54 = affine.load %alloc_23[] : memref<f32>
          affine.for %arg4 = 0 to 64 {
            %55 = affine.load %alloc_22[%arg1, %arg2, %arg3, %arg4] : memref<1x4x64x64xf32>
            %56 = arith.divf %55, %54 : f32
            affine.store %56, %alloc_22[%arg1, %arg2, %arg3, %arg4] : memref<1x4x64x64xf32>
          }
        }
      }
    }
    %alloc_25 = memref.alloc() {alignment = 16 : i64} : memref<1x4x64x16xf32>
    %alloca_26 = memref.alloca() : memref<f32>
    affine.for %arg1 = 0 to 1 {
      affine.for %arg2 = 0 to 4 {
        affine.for %arg3 = 0 to 64 {
          affine.for %arg4 = 0 to 16 {
            affine.store %cst_1, %alloca_26[] : memref<f32>
            affine.for %arg5 = 0 to 64 {
              %54 = affine.load %alloc_22[%arg1, %arg2, %arg3, %arg5] : memref<1x4x64x64xf32>
              %55 = affine.load %alloc_16[%arg1, %arg2, %arg5, %arg4] : memref<1x4x64x16xf32>
              %56 = affine.load %alloca_26[] : memref<f32>
              %57 = arith.mulf %54, %55 : f32
              %58 = arith.addf %56, %57 : f32
              affine.store %58, %alloca_26[] : memref<f32>
            }
            %53 = affine.load %alloca_26[] : memref<f32>
            affine.store %53, %alloc_25[%arg1, %arg2, %arg3, %arg4] : memref<1x4x64x16xf32>
          }
        }
      }
    }
    %alloc_27 = memref.alloc() {alignment = 16 : i64} : memref<1x64x4x16xf32>
    affine.for %arg1 = 0 to 1 {
      affine.for %arg2 = 0 to 4 {
        affine.for %arg3 = 0 to 64 {
          %53 = affine.apply #map4(%arg1, %arg2, %arg3)
          %54 = affine.apply #map5(%arg1, %arg2, %arg3)
          "krnl.memcpy"(%alloc_27, %alloc_25, %c16_i64, %54, %53) : (memref<1x64x4x16xf32>, memref<1x4x64x16xf32>, i64, index, index) -> ()
        }
      }
    }
    %reinterpret_cast_28 = memref.reinterpret_cast %alloc_27 to offset: [0], sizes: [1, 64, 64], strides: [4096, 64, 1] : memref<1x64x4x16xf32> to memref<1x64x64xf32>
    %alloc_29 = memref.alloc() {alignment = 16 : i64} : memref<1x64x64xf32>
    %alloca_30 = memref.alloca() : memref<f32>
    affine.for %arg1 = 0 to 1 {
      affine.for %arg2 = 0 to 64 {
        affine.for %arg3 = 0 to 64 {
          affine.store %cst_1, %alloca_30[] : memref<f32>
          affine.for %arg4 = 0 to 64 {
            %54 = affine.load %reinterpret_cast_28[%arg1, %arg2, %arg4] : memref<1x64x64xf32>
            %55 = affine.load %37[%arg4, %arg3] : memref<64x64xf32>
            %56 = affine.load %alloca_30[] : memref<f32>
            %57 = arith.mulf %54, %55 : f32
            %58 = arith.addf %56, %57 : f32
            affine.store %58, %alloca_30[] : memref<f32>
          }
          %53 = affine.load %alloca_30[] : memref<f32>
          affine.store %53, %alloc_29[%arg1, %arg2, %arg3] : memref<1x64x64xf32>
        }
      }
    }
    %alloc_31 = memref.alloc() {alignment = 16 : i64} : memref<1x64x64xf32>
    affine.for %arg1 = 0 to 1 {
      affine.for %arg2 = 0 to 64 {
        affine.for %arg3 = 0 to 64 {
          %53 = affine.load %alloc_2[%c0, %arg2, %arg3] : memref<1x64x64xf32>
          %54 = affine.load %alloc_29[%c0, %arg2, %arg3] : memref<1x64x64xf32>
          %55 = arith.addf %53, %54 : f32
          affine.store %55, %alloc_31[%arg1, %arg2, %arg3] : memref<1x64x64xf32>
        }
      }
    }
    %alloc_32 = memref.alloc() {alignment = 16 : i64} : memref<1x64x1xf32>
    affine.for %arg1 = 0 to 1 {
      affine.for %arg2 = 0 to 64 {
        affine.for %arg3 = 0 to 1 {
          affine.store %cst_1, %alloc_32[%arg1, %arg2, %arg3] : memref<1x64x1xf32>
        }
      }
    }
    affine.for %arg1 = 0 to 1 {
      affine.for %arg2 = 0 to 64 {
        affine.for %arg3 = 0 to 64 {
          %53 = affine.load %alloc_31[%arg1, %arg2, %arg3] : memref<1x64x64xf32>
          %54 = affine.load %alloc_32[%arg1, %arg2, %c0] : memref<1x64x1xf32>
          %55 = arith.addf %54, %53 : f32
          affine.store %55, %alloc_32[%arg1, %arg2, %c0] : memref<1x64x1xf32>
        }
      }
    }
    affine.for %arg1 = 0 to 1 {
      affine.for %arg2 = 0 to 64 {
        affine.for %arg3 = 0 to 1 {
          %53 = affine.load %alloc_32[%arg1, %arg2, %arg3] : memref<1x64x1xf32>
          %54 = arith.divf %53, %cst : f32
          affine.store %54, %alloc_32[%arg1, %arg2, %arg3] : memref<1x64x1xf32>
        }
      }
    }
    %alloc_33 = memref.alloc() {alignment = 16 : i64} : memref<1x64x64xf32>
    affine.for %arg1 = 0 to 1 {
      affine.for %arg2 = 0 to 64 {
        affine.for %arg3 = 0 to 64 {
          %53 = affine.load %alloc_31[%c0, %arg2, %arg3] : memref<1x64x64xf32>
          %54 = affine.load %alloc_32[%c0, %arg2, %c0] : memref<1x64x1xf32>
          %55 = arith.subf %53, %54 : f32
          affine.store %55, %alloc_33[%arg1, %arg2, %arg3] : memref<1x64x64xf32>
        }
      }
    }
    %alloc_34 = memref.alloc() {alignment = 16 : i64} : memref<1x64x64xf32>
    affine.for %arg1 = 0 to 1 {
      affine.for %arg2 = 0 to 64 {
        affine.for %arg3 = 0 to 64 {
          %53 = affine.load %alloc_33[%c0, %arg2, %arg3] : memref<1x64x64xf32>
          %54 = affine.load %alloc_33[%c0, %arg2, %arg3] : memref<1x64x64xf32>
          %55 = arith.mulf %53, %54 : f32
          affine.store %55, %alloc_34[%arg1, %arg2, %arg3] : memref<1x64x64xf32>
        }
      }
    }
    %alloc_35 = memref.alloc() {alignment = 16 : i64} : memref<1x64x1xf32>
    affine.for %arg1 = 0 to 1 {
      affine.for %arg2 = 0 to 64 {
        affine.for %arg3 = 0 to 1 {
          affine.store %cst_1, %alloc_35[%arg1, %arg2, %arg3] : memref<1x64x1xf32>
        }
      }
    }
    affine.for %arg1 = 0 to 1 {
      affine.for %arg2 = 0 to 64 {
        affine.for %arg3 = 0 to 64 {
          %53 = affine.load %alloc_34[%arg1, %arg2, %arg3] : memref<1x64x64xf32>
          %54 = affine.load %alloc_35[%arg1, %arg2, %c0] : memref<1x64x1xf32>
          %55 = arith.addf %54, %53 : f32
          affine.store %55, %alloc_35[%arg1, %arg2, %c0] : memref<1x64x1xf32>
        }
      }
    }
    affine.for %arg1 = 0 to 1 {
      affine.for %arg2 = 0 to 64 {
        affine.for %arg3 = 0 to 1 {
          %53 = affine.load %alloc_35[%arg1, %arg2, %arg3] : memref<1x64x1xf32>
          %54 = arith.divf %53, %cst : f32
          affine.store %54, %alloc_35[%arg1, %arg2, %arg3] : memref<1x64x1xf32>
        }
      }
    }
    %alloc_36 = memref.alloc() {alignment = 16 : i64} : memref<1x64x1xf32>
    affine.for %arg1 = 0 to 1 {
      affine.for %arg2 = 0 to 64 {
        affine.for %arg3 = 0 to 1 {
          %53 = affine.load %alloc_35[%c0, %arg2, %c0] : memref<1x64x1xf32>
          %54 = affine.load %30[] : memref<f32>
          %55 = arith.addf %53, %54 : f32
          %56 = math.sqrt %55 : f32
          affine.store %56, %alloc_36[%arg1, %arg2, %arg3] : memref<1x64x1xf32>
        }
      }
    }
    %alloc_37 = memref.alloc() {alignment = 16 : i64} : memref<1x64x64xf32>
    affine.for %arg1 = 0 to 1 {
      affine.for %arg2 = 0 to 64 {
        affine.for %arg3 = 0 to 64 {
          %53 = affine.load %alloc_33[%c0, %arg2, %arg3] : memref<1x64x64xf32>
          %54 = affine.load %alloc_36[%c0, %arg2, %c0] : memref<1x64x1xf32>
          %55 = arith.divf %53, %54 : f32
          affine.store %55, %alloc_37[%arg1, %arg2, %arg3] : memref<1x64x64xf32>
        }
      }
    }
    %alloc_38 = memref.alloc() {alignment = 16 : i64} : memref<1x64x256xf32>
    %alloca_39 = memref.alloca() : memref<f32>
    affine.for %arg1 = 0 to 1 {
      affine.for %arg2 = 0 to 64 {
        affine.for %arg3 = 0 to 256 {
          affine.store %cst_1, %alloca_39[] : memref<f32>
          affine.for %arg4 = 0 to 64 {
            %54 = affine.load %alloc_37[%arg1, %arg2, %arg4] : memref<1x64x64xf32>
            %55 = affine.load %38[%arg4, %arg3] : memref<64x256xf32>
            %56 = affine.load %alloca_39[] : memref<f32>
            %57 = arith.mulf %54, %55 : f32
            %58 = arith.addf %56, %57 : f32
            affine.store %58, %alloca_39[] : memref<f32>
          }
          %53 = affine.load %alloca_39[] : memref<f32>
          affine.store %53, %alloc_38[%arg1, %arg2, %arg3] : memref<1x64x256xf32>
        }
      }
    }
    %alloc_40 = memref.alloc() {alignment = 16 : i64} : memref<1x64x256xf32>
    affine.for %arg1 = 0 to 1 {
      affine.for %arg2 = 0 to 64 {
        affine.for %arg3 = 0 to 256 {
          %53 = affine.load %alloc_38[%c0, %arg2, %arg3] : memref<1x64x256xf32>
          %54 = affine.load %alloc_38[%c0, %arg2, %arg3] : memref<1x64x256xf32>
          %55 = arith.mulf %53, %54 : f32
          affine.store %55, %alloc_40[%arg1, %arg2, %arg3] : memref<1x64x256xf32>
        }
      }
    }
    %alloc_41 = memref.alloc() {alignment = 16 : i64} : memref<1x64x256xf32>
    affine.for %arg1 = 0 to 1 {
      affine.for %arg2 = 0 to 64 {
        affine.for %arg3 = 0 to 256 {
          %53 = affine.load %alloc_40[%c0, %arg2, %arg3] : memref<1x64x256xf32>
          %54 = affine.load %alloc_38[%c0, %arg2, %arg3] : memref<1x64x256xf32>
          %55 = arith.mulf %53, %54 : f32
          affine.store %55, %alloc_41[%arg1, %arg2, %arg3] : memref<1x64x256xf32>
        }
      }
    }
    %alloc_42 = memref.alloc() {alignment = 16 : i64} : memref<1x64x256xf32>
    affine.for %arg1 = 0 to 1 {
      affine.for %arg2 = 0 to 64 {
        affine.for %arg3 = 0 to 256 {
          %53 = affine.load %alloc_41[%c0, %arg2, %arg3] : memref<1x64x256xf32>
          %54 = affine.load %28[] : memref<f32>
          %55 = arith.mulf %53, %54 : f32
          affine.store %55, %alloc_42[%arg1, %arg2, %arg3] : memref<1x64x256xf32>
        }
      }
    }
    %alloc_43 = memref.alloc() {alignment = 16 : i64} : memref<1x64x256xf32>
    affine.for %arg1 = 0 to 1 {
      affine.for %arg2 = 0 to 64 {
        affine.for %arg3 = 0 to 256 {
          %53 = affine.load %alloc_38[%c0, %arg2, %arg3] : memref<1x64x256xf32>
          %54 = affine.load %alloc_42[%c0, %arg2, %arg3] : memref<1x64x256xf32>
          %55 = arith.addf %53, %54 : f32
          affine.store %55, %alloc_43[%arg1, %arg2, %arg3] : memref<1x64x256xf32>
        }
      }
    }
    %alloc_44 = memref.alloc() {alignment = 16 : i64} : memref<1x64x256xf32>
    affine.for %arg1 = 0 to 1 {
      affine.for %arg2 = 0 to 64 {
        affine.for %arg3 = 0 to 256 {
          %53 = affine.load %alloc_43[%c0, %arg2, %arg3] : memref<1x64x256xf32>
          %54 = affine.load %27[] : memref<f32>
          %55 = arith.mulf %53, %54 : f32
          %56 = math.tanh %55 : f32
          affine.store %56, %alloc_44[%arg1, %arg2, %arg3] : memref<1x64x256xf32>
        }
      }
    }
    %alloc_45 = memref.alloc() {alignment = 16 : i64} : memref<1x64x256xf32>
    affine.for %arg1 = 0 to 1 {
      affine.for %arg2 = 0 to 64 {
        affine.for %arg3 = 0 to 256 {
          %53 = affine.load %alloc_44[%c0, %arg2, %arg3] : memref<1x64x256xf32>
          %54 = affine.load %26[] : memref<f32>
          %55 = arith.addf %53, %54 : f32
          affine.store %55, %alloc_45[%arg1, %arg2, %arg3] : memref<1x64x256xf32>
        }
      }
    }
    %alloc_46 = memref.alloc() {alignment = 16 : i64} : memref<1x64x256xf32>
    affine.for %arg1 = 0 to 1 {
      affine.for %arg2 = 0 to 64 {
        affine.for %arg3 = 0 to 256 {
          %53 = affine.load %alloc_38[%c0, %arg2, %arg3] : memref<1x64x256xf32>
          %54 = affine.load %alloc_45[%c0, %arg2, %arg3] : memref<1x64x256xf32>
          %55 = arith.mulf %53, %54 : f32
          affine.store %55, %alloc_46[%arg1, %arg2, %arg3] : memref<1x64x256xf32>
        }
      }
    }
    %alloc_47 = memref.alloc() {alignment = 16 : i64} : memref<1x64x256xf32>
    affine.for %arg1 = 0 to 1 {
      affine.for %arg2 = 0 to 64 {
        affine.for %arg3 = 0 to 256 {
          %53 = affine.load %alloc_46[%c0, %arg2, %arg3] : memref<1x64x256xf32>
          %54 = affine.load %29[] : memref<f32>
          %55 = arith.mulf %53, %54 : f32
          affine.store %55, %alloc_47[%arg1, %arg2, %arg3] : memref<1x64x256xf32>
        }
      }
    }
    %alloc_48 = memref.alloc() {alignment = 16 : i64} : memref<1x64x64xf32>
    %alloca_49 = memref.alloca() : memref<f32>
    affine.for %arg1 = 0 to 1 {
      affine.for %arg2 = 0 to 64 {
        affine.for %arg3 = 0 to 64 {
          affine.store %cst_1, %alloca_49[] : memref<f32>
          affine.for %arg4 = 0 to 256 {
            %54 = affine.load %alloc_47[%arg1, %arg2, %arg4] : memref<1x64x256xf32>
            %55 = affine.load %39[%arg4, %arg3] : memref<256x64xf32>
            %56 = affine.load %alloca_49[] : memref<f32>
            %57 = arith.mulf %54, %55 : f32
            %58 = arith.addf %56, %57 : f32
            affine.store %58, %alloca_49[] : memref<f32>
          }
          %53 = affine.load %alloca_49[] : memref<f32>
          affine.store %53, %alloc_48[%arg1, %arg2, %arg3] : memref<1x64x64xf32>
        }
      }
    }
    %alloc_50 = memref.alloc() {alignment = 16 : i64} : memref<1x64x64xf32>
    affine.for %arg1 = 0 to 1 {
      affine.for %arg2 = 0 to 64 {
        affine.for %arg3 = 0 to 64 {
          %53 = affine.load %alloc_31[%c0, %arg2, %arg3] : memref<1x64x64xf32>
          %54 = affine.load %alloc_48[%c0, %arg2, %arg3] : memref<1x64x64xf32>
          %55 = arith.addf %53, %54 : f32
          affine.store %55, %alloc_50[%arg1, %arg2, %arg3] : memref<1x64x64xf32>
        }
      }
    }
    %alloc_51 = memref.alloc() {alignment = 16 : i64} : memref<1x64x1xf32>
    affine.for %arg1 = 0 to 1 {
      affine.for %arg2 = 0 to 64 {
        affine.for %arg3 = 0 to 1 {
          affine.store %cst_1, %alloc_51[%arg1, %arg2, %arg3] : memref<1x64x1xf32>
        }
      }
    }
    affine.for %arg1 = 0 to 1 {
      affine.for %arg2 = 0 to 64 {
        affine.for %arg3 = 0 to 64 {
          %53 = affine.load %alloc_50[%arg1, %arg2, %arg3] : memref<1x64x64xf32>
          %54 = affine.load %alloc_51[%arg1, %arg2, %c0] : memref<1x64x1xf32>
          %55 = arith.addf %54, %53 : f32
          affine.store %55, %alloc_51[%arg1, %arg2, %c0] : memref<1x64x1xf32>
        }
      }
    }
    affine.for %arg1 = 0 to 1 {
      affine.for %arg2 = 0 to 64 {
        affine.for %arg3 = 0 to 1 {
          %53 = affine.load %alloc_51[%arg1, %arg2, %arg3] : memref<1x64x1xf32>
          %54 = arith.divf %53, %cst : f32
          affine.store %54, %alloc_51[%arg1, %arg2, %arg3] : memref<1x64x1xf32>
        }
      }
    }
    %alloc_52 = memref.alloc() {alignment = 16 : i64} : memref<1x64x64xf32>
    affine.for %arg1 = 0 to 1 {
      affine.for %arg2 = 0 to 64 {
        affine.for %arg3 = 0 to 64 {
          %53 = affine.load %alloc_50[%c0, %arg2, %arg3] : memref<1x64x64xf32>
          %54 = affine.load %alloc_51[%c0, %arg2, %c0] : memref<1x64x1xf32>
          %55 = arith.subf %53, %54 : f32
          affine.store %55, %alloc_52[%arg1, %arg2, %arg3] : memref<1x64x64xf32>
        }
      }
    }
    %alloc_53 = memref.alloc() {alignment = 16 : i64} : memref<1x64x64xf32>
    affine.for %arg1 = 0 to 1 {
      affine.for %arg2 = 0 to 64 {
        affine.for %arg3 = 0 to 64 {
          %53 = affine.load %alloc_52[%c0, %arg2, %arg3] : memref<1x64x64xf32>
          %54 = affine.load %alloc_52[%c0, %arg2, %arg3] : memref<1x64x64xf32>
          %55 = arith.mulf %53, %54 : f32
          affine.store %55, %alloc_53[%arg1, %arg2, %arg3] : memref<1x64x64xf32>
        }
      }
    }
    %alloc_54 = memref.alloc() {alignment = 16 : i64} : memref<1x64x1xf32>
    affine.for %arg1 = 0 to 1 {
      affine.for %arg2 = 0 to 64 {
        affine.for %arg3 = 0 to 1 {
          affine.store %cst_1, %alloc_54[%arg1, %arg2, %arg3] : memref<1x64x1xf32>
        }
      }
    }
    affine.for %arg1 = 0 to 1 {
      affine.for %arg2 = 0 to 64 {
        affine.for %arg3 = 0 to 64 {
          %53 = affine.load %alloc_53[%arg1, %arg2, %arg3] : memref<1x64x64xf32>
          %54 = affine.load %alloc_54[%arg1, %arg2, %c0] : memref<1x64x1xf32>
          %55 = arith.addf %54, %53 : f32
          affine.store %55, %alloc_54[%arg1, %arg2, %c0] : memref<1x64x1xf32>
        }
      }
    }
    affine.for %arg1 = 0 to 1 {
      affine.for %arg2 = 0 to 64 {
        affine.for %arg3 = 0 to 1 {
          %53 = affine.load %alloc_54[%arg1, %arg2, %arg3] : memref<1x64x1xf32>
          %54 = arith.divf %53, %cst : f32
          affine.store %54, %alloc_54[%arg1, %arg2, %arg3] : memref<1x64x1xf32>
        }
      }
    }
    %alloc_55 = memref.alloc() {alignment = 16 : i64} : memref<1x64x1xf32>
    affine.for %arg1 = 0 to 1 {
      affine.for %arg2 = 0 to 64 {
        affine.for %arg3 = 0 to 1 {
          %53 = affine.load %alloc_54[%c0, %arg2, %c0] : memref<1x64x1xf32>
          %54 = affine.load %25[] : memref<f32>
          %55 = arith.addf %53, %54 : f32
          %56 = math.sqrt %55 : f32
          affine.store %56, %alloc_55[%arg1, %arg2, %arg3] : memref<1x64x1xf32>
        }
      }
    }
    %alloc_56 = memref.alloc() {alignment = 16 : i64} : memref<1x64x64xf32>
    affine.for %arg1 = 0 to 1 {
      affine.for %arg2 = 0 to 64 {
        affine.for %arg3 = 0 to 64 {
          %53 = affine.load %alloc_52[%c0, %arg2, %arg3] : memref<1x64x64xf32>
          %54 = affine.load %alloc_55[%c0, %arg2, %c0] : memref<1x64x1xf32>
          %55 = arith.divf %53, %54 : f32
          affine.store %55, %alloc_56[%arg1, %arg2, %arg3] : memref<1x64x64xf32>
        }
      }
    }
    %alloc_57 = memref.alloc() {alignment = 16 : i64} : memref<1x64x192xf32>
    %alloca_58 = memref.alloca() : memref<f32>
    affine.for %arg1 = 0 to 1 {
      affine.for %arg2 = 0 to 64 {
        affine.for %arg3 = 0 to 192 {
          affine.store %cst_1, %alloca_58[] : memref<f32>
          affine.for %arg4 = 0 to 64 {
            %54 = affine.load %alloc_56[%arg1, %arg2, %arg4] : memref<1x64x64xf32>
            %55 = affine.load %40[%arg4, %arg3] : memref<64x192xf32>
            %56 = affine.load %alloca_58[] : memref<f32>
            %57 = arith.mulf %54, %55 : f32
            %58 = arith.addf %56, %57 : f32
            affine.store %58, %alloca_58[] : memref<f32>
          }
          %53 = affine.load %alloca_58[] : memref<f32>
          affine.store %53, %alloc_57[%arg1, %arg2, %arg3] : memref<1x64x192xf32>
        }
      }
    }
    %alloc_59 = memref.alloc() {alignment = 16 : i64} : memref<1x64x64xf32>
    %alloc_60 = memref.alloc() {alignment = 16 : i64} : memref<1x64x64xf32>
    %alloc_61 = memref.alloc() {alignment = 16 : i64} : memref<1x64x64xf32>
    affine.for %arg1 = 0 to 1 {
      affine.for %arg2 = 0 to 64 {
        affine.for %arg3 = 0 to 64 {
          %53 = affine.load %alloc_57[%arg1, %arg2, %arg3] : memref<1x64x192xf32>
          affine.store %53, %alloc_59[%arg1, %arg2, %arg3] : memref<1x64x64xf32>
        }
      }
    }
    affine.for %arg1 = 0 to 1 {
      affine.for %arg2 = 0 to 64 {
        affine.for %arg3 = 0 to 64 {
          %53 = affine.apply #map(%arg3)
          %54 = affine.load %alloc_57[%arg1, %arg2, %53] : memref<1x64x192xf32>
          affine.store %54, %alloc_60[%arg1, %arg2, %arg3] : memref<1x64x64xf32>
        }
      }
    }
    affine.for %arg1 = 0 to 1 {
      affine.for %arg2 = 0 to 64 {
        affine.for %arg3 = 0 to 64 {
          %53 = affine.apply #map1(%arg3)
          %54 = affine.load %alloc_57[%arg1, %arg2, %53] : memref<1x64x192xf32>
          affine.store %54, %alloc_61[%arg1, %arg2, %arg3] : memref<1x64x64xf32>
        }
      }
    }
    %reinterpret_cast_62 = memref.reinterpret_cast %alloc_60 to offset: [0], sizes: [1, 64, 4, 16], strides: [4096, 64, 16, 1] : memref<1x64x64xf32> to memref<1x64x4x16xf32>
    %reinterpret_cast_63 = memref.reinterpret_cast %alloc_59 to offset: [0], sizes: [1, 64, 4, 16], strides: [4096, 64, 16, 1] : memref<1x64x64xf32> to memref<1x64x4x16xf32>
    %alloc_64 = memref.alloc() {alignment = 16 : i64} : memref<1x4x64x16xf32>
    affine.for %arg1 = 0 to 1 {
      affine.for %arg2 = 0 to 64 {
        affine.for %arg3 = 0 to 4 {
          %53 = affine.apply #map2(%arg1, %arg2, %arg3)
          %54 = affine.apply #map3(%arg1, %arg2, %arg3)
          "krnl.memcpy"(%alloc_64, %reinterpret_cast_63, %c16_i64, %54, %53) : (memref<1x4x64x16xf32>, memref<1x64x4x16xf32>, i64, index, index) -> ()
        }
      }
    }
    %reinterpret_cast_65 = memref.reinterpret_cast %alloc_61 to offset: [0], sizes: [1, 64, 4, 16], strides: [4096, 64, 16, 1] : memref<1x64x64xf32> to memref<1x64x4x16xf32>
    %alloc_66 = memref.alloc() {alignment = 16 : i64} : memref<1x4x64x16xf32>
    affine.for %arg1 = 0 to 1 {
      affine.for %arg2 = 0 to 64 {
        affine.for %arg3 = 0 to 4 {
          %53 = affine.apply #map2(%arg1, %arg2, %arg3)
          %54 = affine.apply #map3(%arg1, %arg2, %arg3)
          "krnl.memcpy"(%alloc_66, %reinterpret_cast_65, %c16_i64, %54, %53) : (memref<1x4x64x16xf32>, memref<1x64x4x16xf32>, i64, index, index) -> ()
        }
      }
    }
    %alloc_67 = memref.alloc() {alignment = 16 : i64} : memref<1x4x16x64xf32>
    affine.for %arg1 = 0 to 1 {
      affine.for %arg2 = 0 to 64 {
        affine.for %arg3 = 0 to 4 {
          affine.for %arg4 = 0 to 16 {
            %53 = affine.load %reinterpret_cast_62[%arg1, %arg2, %arg3, %arg4] : memref<1x64x4x16xf32>
            affine.store %53, %alloc_67[%arg1, %arg3, %arg4, %arg2] : memref<1x4x16x64xf32>
          }
        }
      }
    }
    %alloc_68 = memref.alloc() {alignment = 16 : i64} : memref<1x4x64x64xf32>
    %alloca_69 = memref.alloca() : memref<f32>
    affine.for %arg1 = 0 to 1 {
      affine.for %arg2 = 0 to 4 {
        affine.for %arg3 = 0 to 64 {
          affine.for %arg4 = 0 to 64 {
            affine.store %cst_1, %alloca_69[] : memref<f32>
            affine.for %arg5 = 0 to 16 {
              %54 = affine.load %alloc_64[%arg1, %arg2, %arg3, %arg5] : memref<1x4x64x16xf32>
              %55 = affine.load %alloc_67[%arg1, %arg2, %arg5, %arg4] : memref<1x4x16x64xf32>
              %56 = affine.load %alloca_69[] : memref<f32>
              %57 = arith.mulf %54, %55 : f32
              %58 = arith.addf %56, %57 : f32
              affine.store %58, %alloca_69[] : memref<f32>
            }
            %53 = affine.load %alloca_69[] : memref<f32>
            affine.store %53, %alloc_68[%arg1, %arg2, %arg3, %arg4] : memref<1x4x64x64xf32>
          }
        }
      }
    }
    %alloc_70 = memref.alloc() {alignment = 16 : i64} : memref<1x4x64x64xf32>
    affine.for %arg1 = 0 to 1 {
      affine.for %arg2 = 0 to 4 {
        affine.for %arg3 = 0 to 64 {
          affine.for %arg4 = 0 to 64 {
            %53 = affine.load %alloc_68[%c0, %arg2, %arg3, %arg4] : memref<1x4x64x64xf32>
            %54 = affine.load %24[] : memref<f32>
            %55 = arith.mulf %53, %54 : f32
            affine.store %55, %alloc_70[%arg1, %arg2, %arg3, %arg4] : memref<1x4x64x64xf32>
          }
        }
      }
    }
    %alloc_71 = memref.alloc() {alignment = 16 : i64} : memref<1x4x64x64xf32>
    affine.for %arg1 = 0 to 1 {
      affine.for %arg2 = 0 to 4 {
        affine.for %arg3 = 0 to 64 {
          affine.for %arg4 = 0 to 64 {
            %53 = affine.load %36[%c0, %c0, %arg3, %arg4] : memref<1x1x64x64xi1>
            %54 = affine.load %23[] : memref<f32>
            %55 = affine.load %alloc_70[%c0, %arg2, %arg3, %arg4] : memref<1x4x64x64xf32>
            %56 = arith.select %53, %54, %55 : f32
            affine.store %56, %alloc_71[%arg1, %arg2, %arg3, %arg4] : memref<1x4x64x64xf32>
          }
        }
      }
    }
    %alloc_72 = memref.alloc() {alignment = 16 : i64} : memref<1x4x64x64xf32>
    %alloc_73 = memref.alloc() : memref<f32>
    %alloc_74 = memref.alloc() : memref<f32>
    affine.for %arg1 = 0 to 1 {
      affine.for %arg2 = 0 to 4 {
        affine.for %arg3 = 0 to 64 {
          affine.store %cst_1, %alloc_73[] : memref<f32>
          affine.store %cst_0, %alloc_74[] : memref<f32>
          affine.for %arg4 = 0 to 64 {
            %55 = affine.load %alloc_74[] : memref<f32>
            %56 = affine.load %alloc_71[%arg1, %arg2, %arg3, %arg4] : memref<1x4x64x64xf32>
            %57 = arith.cmpf ogt, %55, %56 : f32
            %58 = arith.select %57, %55, %56 : f32
            affine.store %58, %alloc_74[] : memref<f32>
          }
          %53 = affine.load %alloc_74[] : memref<f32>
          affine.for %arg4 = 0 to 64 {
            %55 = affine.load %alloc_73[] : memref<f32>
            %56 = affine.load %alloc_71[%arg1, %arg2, %arg3, %arg4] : memref<1x4x64x64xf32>
            %57 = arith.subf %56, %53 : f32
            %58 = math.exp %57 : f32
            %59 = arith.addf %55, %58 : f32
            affine.store %59, %alloc_73[] : memref<f32>
            affine.store %58, %alloc_72[%arg1, %arg2, %arg3, %arg4] : memref<1x4x64x64xf32>
          }
          %54 = affine.load %alloc_73[] : memref<f32>
          affine.for %arg4 = 0 to 64 {
            %55 = affine.load %alloc_72[%arg1, %arg2, %arg3, %arg4] : memref<1x4x64x64xf32>
            %56 = arith.divf %55, %54 : f32
            affine.store %56, %alloc_72[%arg1, %arg2, %arg3, %arg4] : memref<1x4x64x64xf32>
          }
        }
      }
    }
    %alloc_75 = memref.alloc() {alignment = 16 : i64} : memref<1x4x64x16xf32>
    %alloca_76 = memref.alloca() : memref<f32>
    affine.for %arg1 = 0 to 1 {
      affine.for %arg2 = 0 to 4 {
        affine.for %arg3 = 0 to 64 {
          affine.for %arg4 = 0 to 16 {
            affine.store %cst_1, %alloca_76[] : memref<f32>
            affine.for %arg5 = 0 to 64 {
              %54 = affine.load %alloc_72[%arg1, %arg2, %arg3, %arg5] : memref<1x4x64x64xf32>
              %55 = affine.load %alloc_66[%arg1, %arg2, %arg5, %arg4] : memref<1x4x64x16xf32>
              %56 = affine.load %alloca_76[] : memref<f32>
              %57 = arith.mulf %54, %55 : f32
              %58 = arith.addf %56, %57 : f32
              affine.store %58, %alloca_76[] : memref<f32>
            }
            %53 = affine.load %alloca_76[] : memref<f32>
            affine.store %53, %alloc_75[%arg1, %arg2, %arg3, %arg4] : memref<1x4x64x16xf32>
          }
        }
      }
    }
    %alloc_77 = memref.alloc() {alignment = 16 : i64} : memref<1x64x4x16xf32>
    affine.for %arg1 = 0 to 1 {
      affine.for %arg2 = 0 to 4 {
        affine.for %arg3 = 0 to 64 {
          %53 = affine.apply #map4(%arg1, %arg2, %arg3)
          %54 = affine.apply #map5(%arg1, %arg2, %arg3)
          "krnl.memcpy"(%alloc_77, %alloc_75, %c16_i64, %54, %53) : (memref<1x64x4x16xf32>, memref<1x4x64x16xf32>, i64, index, index) -> ()
        }
      }
    }
    %reinterpret_cast_78 = memref.reinterpret_cast %alloc_77 to offset: [0], sizes: [1, 64, 64], strides: [4096, 64, 1] : memref<1x64x4x16xf32> to memref<1x64x64xf32>
    %alloc_79 = memref.alloc() {alignment = 16 : i64} : memref<1x64x64xf32>
    %alloca_80 = memref.alloca() : memref<f32>
    affine.for %arg1 = 0 to 1 {
      affine.for %arg2 = 0 to 64 {
        affine.for %arg3 = 0 to 64 {
          affine.store %cst_1, %alloca_80[] : memref<f32>
          affine.for %arg4 = 0 to 64 {
            %54 = affine.load %reinterpret_cast_78[%arg1, %arg2, %arg4] : memref<1x64x64xf32>
            %55 = affine.load %41[%arg4, %arg3] : memref<64x64xf32>
            %56 = affine.load %alloca_80[] : memref<f32>
            %57 = arith.mulf %54, %55 : f32
            %58 = arith.addf %56, %57 : f32
            affine.store %58, %alloca_80[] : memref<f32>
          }
          %53 = affine.load %alloca_80[] : memref<f32>
          affine.store %53, %alloc_79[%arg1, %arg2, %arg3] : memref<1x64x64xf32>
        }
      }
    }
    %alloc_81 = memref.alloc() {alignment = 16 : i64} : memref<1x64x64xf32>
    affine.for %arg1 = 0 to 1 {
      affine.for %arg2 = 0 to 64 {
        affine.for %arg3 = 0 to 64 {
          %53 = affine.load %alloc_50[%c0, %arg2, %arg3] : memref<1x64x64xf32>
          %54 = affine.load %alloc_79[%c0, %arg2, %arg3] : memref<1x64x64xf32>
          %55 = arith.addf %53, %54 : f32
          affine.store %55, %alloc_81[%arg1, %arg2, %arg3] : memref<1x64x64xf32>
        }
      }
    }
    %alloc_82 = memref.alloc() {alignment = 16 : i64} : memref<1x64x1xf32>
    affine.for %arg1 = 0 to 1 {
      affine.for %arg2 = 0 to 64 {
        affine.for %arg3 = 0 to 1 {
          affine.store %cst_1, %alloc_82[%arg1, %arg2, %arg3] : memref<1x64x1xf32>
        }
      }
    }
    affine.for %arg1 = 0 to 1 {
      affine.for %arg2 = 0 to 64 {
        affine.for %arg3 = 0 to 64 {
          %53 = affine.load %alloc_81[%arg1, %arg2, %arg3] : memref<1x64x64xf32>
          %54 = affine.load %alloc_82[%arg1, %arg2, %c0] : memref<1x64x1xf32>
          %55 = arith.addf %54, %53 : f32
          affine.store %55, %alloc_82[%arg1, %arg2, %c0] : memref<1x64x1xf32>
        }
      }
    }
    affine.for %arg1 = 0 to 1 {
      affine.for %arg2 = 0 to 64 {
        affine.for %arg3 = 0 to 1 {
          %53 = affine.load %alloc_82[%arg1, %arg2, %arg3] : memref<1x64x1xf32>
          %54 = arith.divf %53, %cst : f32
          affine.store %54, %alloc_82[%arg1, %arg2, %arg3] : memref<1x64x1xf32>
        }
      }
    }
    %alloc_83 = memref.alloc() {alignment = 16 : i64} : memref<1x64x64xf32>
    affine.for %arg1 = 0 to 1 {
      affine.for %arg2 = 0 to 64 {
        affine.for %arg3 = 0 to 64 {
          %53 = affine.load %alloc_81[%c0, %arg2, %arg3] : memref<1x64x64xf32>
          %54 = affine.load %alloc_82[%c0, %arg2, %c0] : memref<1x64x1xf32>
          %55 = arith.subf %53, %54 : f32
          affine.store %55, %alloc_83[%arg1, %arg2, %arg3] : memref<1x64x64xf32>
        }
      }
    }
    %alloc_84 = memref.alloc() {alignment = 16 : i64} : memref<1x64x64xf32>
    affine.for %arg1 = 0 to 1 {
      affine.for %arg2 = 0 to 64 {
        affine.for %arg3 = 0 to 64 {
          %53 = affine.load %alloc_83[%c0, %arg2, %arg3] : memref<1x64x64xf32>
          %54 = affine.load %alloc_83[%c0, %arg2, %arg3] : memref<1x64x64xf32>
          %55 = arith.mulf %53, %54 : f32
          affine.store %55, %alloc_84[%arg1, %arg2, %arg3] : memref<1x64x64xf32>
        }
      }
    }
    %alloc_85 = memref.alloc() {alignment = 16 : i64} : memref<1x64x1xf32>
    affine.for %arg1 = 0 to 1 {
      affine.for %arg2 = 0 to 64 {
        affine.for %arg3 = 0 to 1 {
          affine.store %cst_1, %alloc_85[%arg1, %arg2, %arg3] : memref<1x64x1xf32>
        }
      }
    }
    affine.for %arg1 = 0 to 1 {
      affine.for %arg2 = 0 to 64 {
        affine.for %arg3 = 0 to 64 {
          %53 = affine.load %alloc_84[%arg1, %arg2, %arg3] : memref<1x64x64xf32>
          %54 = affine.load %alloc_85[%arg1, %arg2, %c0] : memref<1x64x1xf32>
          %55 = arith.addf %54, %53 : f32
          affine.store %55, %alloc_85[%arg1, %arg2, %c0] : memref<1x64x1xf32>
        }
      }
    }
    affine.for %arg1 = 0 to 1 {
      affine.for %arg2 = 0 to 64 {
        affine.for %arg3 = 0 to 1 {
          %53 = affine.load %alloc_85[%arg1, %arg2, %arg3] : memref<1x64x1xf32>
          %54 = arith.divf %53, %cst : f32
          affine.store %54, %alloc_85[%arg1, %arg2, %arg3] : memref<1x64x1xf32>
        }
      }
    }
    %alloc_86 = memref.alloc() {alignment = 16 : i64} : memref<1x64x1xf32>
    affine.for %arg1 = 0 to 1 {
      affine.for %arg2 = 0 to 64 {
        affine.for %arg3 = 0 to 1 {
          %53 = affine.load %alloc_85[%c0, %arg2, %c0] : memref<1x64x1xf32>
          %54 = affine.load %22[] : memref<f32>
          %55 = arith.addf %53, %54 : f32
          %56 = math.sqrt %55 : f32
          affine.store %56, %alloc_86[%arg1, %arg2, %arg3] : memref<1x64x1xf32>
        }
      }
    }
    %alloc_87 = memref.alloc() {alignment = 16 : i64} : memref<1x64x64xf32>
    affine.for %arg1 = 0 to 1 {
      affine.for %arg2 = 0 to 64 {
        affine.for %arg3 = 0 to 64 {
          %53 = affine.load %alloc_83[%c0, %arg2, %arg3] : memref<1x64x64xf32>
          %54 = affine.load %alloc_86[%c0, %arg2, %c0] : memref<1x64x1xf32>
          %55 = arith.divf %53, %54 : f32
          affine.store %55, %alloc_87[%arg1, %arg2, %arg3] : memref<1x64x64xf32>
        }
      }
    }
    %alloc_88 = memref.alloc() {alignment = 16 : i64} : memref<1x64x256xf32>
    %alloca_89 = memref.alloca() : memref<f32>
    affine.for %arg1 = 0 to 1 {
      affine.for %arg2 = 0 to 64 {
        affine.for %arg3 = 0 to 256 {
          affine.store %cst_1, %alloca_89[] : memref<f32>
          affine.for %arg4 = 0 to 64 {
            %54 = affine.load %alloc_87[%arg1, %arg2, %arg4] : memref<1x64x64xf32>
            %55 = affine.load %42[%arg4, %arg3] : memref<64x256xf32>
            %56 = affine.load %alloca_89[] : memref<f32>
            %57 = arith.mulf %54, %55 : f32
            %58 = arith.addf %56, %57 : f32
            affine.store %58, %alloca_89[] : memref<f32>
          }
          %53 = affine.load %alloca_89[] : memref<f32>
          affine.store %53, %alloc_88[%arg1, %arg2, %arg3] : memref<1x64x256xf32>
        }
      }
    }
    %alloc_90 = memref.alloc() {alignment = 16 : i64} : memref<1x64x256xf32>
    affine.for %arg1 = 0 to 1 {
      affine.for %arg2 = 0 to 64 {
        affine.for %arg3 = 0 to 256 {
          %53 = affine.load %alloc_88[%c0, %arg2, %arg3] : memref<1x64x256xf32>
          %54 = affine.load %alloc_88[%c0, %arg2, %arg3] : memref<1x64x256xf32>
          %55 = arith.mulf %53, %54 : f32
          affine.store %55, %alloc_90[%arg1, %arg2, %arg3] : memref<1x64x256xf32>
        }
      }
    }
    %alloc_91 = memref.alloc() {alignment = 16 : i64} : memref<1x64x256xf32>
    affine.for %arg1 = 0 to 1 {
      affine.for %arg2 = 0 to 64 {
        affine.for %arg3 = 0 to 256 {
          %53 = affine.load %alloc_90[%c0, %arg2, %arg3] : memref<1x64x256xf32>
          %54 = affine.load %alloc_88[%c0, %arg2, %arg3] : memref<1x64x256xf32>
          %55 = arith.mulf %53, %54 : f32
          affine.store %55, %alloc_91[%arg1, %arg2, %arg3] : memref<1x64x256xf32>
        }
      }
    }
    %alloc_92 = memref.alloc() {alignment = 16 : i64} : memref<1x64x256xf32>
    affine.for %arg1 = 0 to 1 {
      affine.for %arg2 = 0 to 64 {
        affine.for %arg3 = 0 to 256 {
          %53 = affine.load %alloc_91[%c0, %arg2, %arg3] : memref<1x64x256xf32>
          %54 = affine.load %20[] : memref<f32>
          %55 = arith.mulf %53, %54 : f32
          affine.store %55, %alloc_92[%arg1, %arg2, %arg3] : memref<1x64x256xf32>
        }
      }
    }
    %alloc_93 = memref.alloc() {alignment = 16 : i64} : memref<1x64x256xf32>
    affine.for %arg1 = 0 to 1 {
      affine.for %arg2 = 0 to 64 {
        affine.for %arg3 = 0 to 256 {
          %53 = affine.load %alloc_88[%c0, %arg2, %arg3] : memref<1x64x256xf32>
          %54 = affine.load %alloc_92[%c0, %arg2, %arg3] : memref<1x64x256xf32>
          %55 = arith.addf %53, %54 : f32
          affine.store %55, %alloc_93[%arg1, %arg2, %arg3] : memref<1x64x256xf32>
        }
      }
    }
    %alloc_94 = memref.alloc() {alignment = 16 : i64} : memref<1x64x256xf32>
    affine.for %arg1 = 0 to 1 {
      affine.for %arg2 = 0 to 64 {
        affine.for %arg3 = 0 to 256 {
          %53 = affine.load %alloc_93[%c0, %arg2, %arg3] : memref<1x64x256xf32>
          %54 = affine.load %19[] : memref<f32>
          %55 = arith.mulf %53, %54 : f32
          %56 = math.tanh %55 : f32
          affine.store %56, %alloc_94[%arg1, %arg2, %arg3] : memref<1x64x256xf32>
        }
      }
    }
    %alloc_95 = memref.alloc() {alignment = 16 : i64} : memref<1x64x256xf32>
    affine.for %arg1 = 0 to 1 {
      affine.for %arg2 = 0 to 64 {
        affine.for %arg3 = 0 to 256 {
          %53 = affine.load %alloc_94[%c0, %arg2, %arg3] : memref<1x64x256xf32>
          %54 = affine.load %18[] : memref<f32>
          %55 = arith.addf %53, %54 : f32
          affine.store %55, %alloc_95[%arg1, %arg2, %arg3] : memref<1x64x256xf32>
        }
      }
    }
    %alloc_96 = memref.alloc() {alignment = 16 : i64} : memref<1x64x256xf32>
    affine.for %arg1 = 0 to 1 {
      affine.for %arg2 = 0 to 64 {
        affine.for %arg3 = 0 to 256 {
          %53 = affine.load %alloc_88[%c0, %arg2, %arg3] : memref<1x64x256xf32>
          %54 = affine.load %alloc_95[%c0, %arg2, %arg3] : memref<1x64x256xf32>
          %55 = arith.mulf %53, %54 : f32
          affine.store %55, %alloc_96[%arg1, %arg2, %arg3] : memref<1x64x256xf32>
        }
      }
    }
    %alloc_97 = memref.alloc() {alignment = 16 : i64} : memref<1x64x256xf32>
    affine.for %arg1 = 0 to 1 {
      affine.for %arg2 = 0 to 64 {
        affine.for %arg3 = 0 to 256 {
          %53 = affine.load %alloc_96[%c0, %arg2, %arg3] : memref<1x64x256xf32>
          %54 = affine.load %21[] : memref<f32>
          %55 = arith.mulf %53, %54 : f32
          affine.store %55, %alloc_97[%arg1, %arg2, %arg3] : memref<1x64x256xf32>
        }
      }
    }
    %alloc_98 = memref.alloc() {alignment = 16 : i64} : memref<1x64x64xf32>
    %alloca_99 = memref.alloca() : memref<f32>
    affine.for %arg1 = 0 to 1 {
      affine.for %arg2 = 0 to 64 {
        affine.for %arg3 = 0 to 64 {
          affine.store %cst_1, %alloca_99[] : memref<f32>
          affine.for %arg4 = 0 to 256 {
            %54 = affine.load %alloc_97[%arg1, %arg2, %arg4] : memref<1x64x256xf32>
            %55 = affine.load %43[%arg4, %arg3] : memref<256x64xf32>
            %56 = affine.load %alloca_99[] : memref<f32>
            %57 = arith.mulf %54, %55 : f32
            %58 = arith.addf %56, %57 : f32
            affine.store %58, %alloca_99[] : memref<f32>
          }
          %53 = affine.load %alloca_99[] : memref<f32>
          affine.store %53, %alloc_98[%arg1, %arg2, %arg3] : memref<1x64x64xf32>
        }
      }
    }
    %alloc_100 = memref.alloc() {alignment = 16 : i64} : memref<1x64x64xf32>
    affine.for %arg1 = 0 to 1 {
      affine.for %arg2 = 0 to 64 {
        affine.for %arg3 = 0 to 64 {
          %53 = affine.load %alloc_81[%c0, %arg2, %arg3] : memref<1x64x64xf32>
          %54 = affine.load %alloc_98[%c0, %arg2, %arg3] : memref<1x64x64xf32>
          %55 = arith.addf %53, %54 : f32
          affine.store %55, %alloc_100[%arg1, %arg2, %arg3] : memref<1x64x64xf32>
        }
      }
    }
    %alloc_101 = memref.alloc() {alignment = 16 : i64} : memref<1x64x1xf32>
    affine.for %arg1 = 0 to 1 {
      affine.for %arg2 = 0 to 64 {
        affine.for %arg3 = 0 to 1 {
          affine.store %cst_1, %alloc_101[%arg1, %arg2, %arg3] : memref<1x64x1xf32>
        }
      }
    }
    affine.for %arg1 = 0 to 1 {
      affine.for %arg2 = 0 to 64 {
        affine.for %arg3 = 0 to 64 {
          %53 = affine.load %alloc_100[%arg1, %arg2, %arg3] : memref<1x64x64xf32>
          %54 = affine.load %alloc_101[%arg1, %arg2, %c0] : memref<1x64x1xf32>
          %55 = arith.addf %54, %53 : f32
          affine.store %55, %alloc_101[%arg1, %arg2, %c0] : memref<1x64x1xf32>
        }
      }
    }
    affine.for %arg1 = 0 to 1 {
      affine.for %arg2 = 0 to 64 {
        affine.for %arg3 = 0 to 1 {
          %53 = affine.load %alloc_101[%arg1, %arg2, %arg3] : memref<1x64x1xf32>
          %54 = arith.divf %53, %cst : f32
          affine.store %54, %alloc_101[%arg1, %arg2, %arg3] : memref<1x64x1xf32>
        }
      }
    }
    %alloc_102 = memref.alloc() {alignment = 16 : i64} : memref<1x64x64xf32>
    affine.for %arg1 = 0 to 1 {
      affine.for %arg2 = 0 to 64 {
        affine.for %arg3 = 0 to 64 {
          %53 = affine.load %alloc_100[%c0, %arg2, %arg3] : memref<1x64x64xf32>
          %54 = affine.load %alloc_101[%c0, %arg2, %c0] : memref<1x64x1xf32>
          %55 = arith.subf %53, %54 : f32
          affine.store %55, %alloc_102[%arg1, %arg2, %arg3] : memref<1x64x64xf32>
        }
      }
    }
    %alloc_103 = memref.alloc() {alignment = 16 : i64} : memref<1x64x64xf32>
    affine.for %arg1 = 0 to 1 {
      affine.for %arg2 = 0 to 64 {
        affine.for %arg3 = 0 to 64 {
          %53 = affine.load %alloc_102[%c0, %arg2, %arg3] : memref<1x64x64xf32>
          %54 = affine.load %alloc_102[%c0, %arg2, %arg3] : memref<1x64x64xf32>
          %55 = arith.mulf %53, %54 : f32
          affine.store %55, %alloc_103[%arg1, %arg2, %arg3] : memref<1x64x64xf32>
        }
      }
    }
    %alloc_104 = memref.alloc() {alignment = 16 : i64} : memref<1x64x1xf32>
    affine.for %arg1 = 0 to 1 {
      affine.for %arg2 = 0 to 64 {
        affine.for %arg3 = 0 to 1 {
          affine.store %cst_1, %alloc_104[%arg1, %arg2, %arg3] : memref<1x64x1xf32>
        }
      }
    }
    affine.for %arg1 = 0 to 1 {
      affine.for %arg2 = 0 to 64 {
        affine.for %arg3 = 0 to 64 {
          %53 = affine.load %alloc_103[%arg1, %arg2, %arg3] : memref<1x64x64xf32>
          %54 = affine.load %alloc_104[%arg1, %arg2, %c0] : memref<1x64x1xf32>
          %55 = arith.addf %54, %53 : f32
          affine.store %55, %alloc_104[%arg1, %arg2, %c0] : memref<1x64x1xf32>
        }
      }
    }
    affine.for %arg1 = 0 to 1 {
      affine.for %arg2 = 0 to 64 {
        affine.for %arg3 = 0 to 1 {
          %53 = affine.load %alloc_104[%arg1, %arg2, %arg3] : memref<1x64x1xf32>
          %54 = arith.divf %53, %cst : f32
          affine.store %54, %alloc_104[%arg1, %arg2, %arg3] : memref<1x64x1xf32>
        }
      }
    }
    %alloc_105 = memref.alloc() {alignment = 16 : i64} : memref<1x64x1xf32>
    affine.for %arg1 = 0 to 1 {
      affine.for %arg2 = 0 to 64 {
        affine.for %arg3 = 0 to 1 {
          %53 = affine.load %alloc_104[%c0, %arg2, %c0] : memref<1x64x1xf32>
          %54 = affine.load %17[] : memref<f32>
          %55 = arith.addf %53, %54 : f32
          %56 = math.sqrt %55 : f32
          affine.store %56, %alloc_105[%arg1, %arg2, %arg3] : memref<1x64x1xf32>
        }
      }
    }
    %alloc_106 = memref.alloc() {alignment = 16 : i64} : memref<1x64x64xf32>
    affine.for %arg1 = 0 to 1 {
      affine.for %arg2 = 0 to 64 {
        affine.for %arg3 = 0 to 64 {
          %53 = affine.load %alloc_102[%c0, %arg2, %arg3] : memref<1x64x64xf32>
          %54 = affine.load %alloc_105[%c0, %arg2, %c0] : memref<1x64x1xf32>
          %55 = arith.divf %53, %54 : f32
          affine.store %55, %alloc_106[%arg1, %arg2, %arg3] : memref<1x64x64xf32>
        }
      }
    }
    %alloc_107 = memref.alloc() {alignment = 16 : i64} : memref<1x64x192xf32>
    %alloca_108 = memref.alloca() : memref<f32>
    affine.for %arg1 = 0 to 1 {
      affine.for %arg2 = 0 to 64 {
        affine.for %arg3 = 0 to 192 {
          affine.store %cst_1, %alloca_108[] : memref<f32>
          affine.for %arg4 = 0 to 64 {
            %54 = affine.load %alloc_106[%arg1, %arg2, %arg4] : memref<1x64x64xf32>
            %55 = affine.load %44[%arg4, %arg3] : memref<64x192xf32>
            %56 = affine.load %alloca_108[] : memref<f32>
            %57 = arith.mulf %54, %55 : f32
            %58 = arith.addf %56, %57 : f32
            affine.store %58, %alloca_108[] : memref<f32>
          }
          %53 = affine.load %alloca_108[] : memref<f32>
          affine.store %53, %alloc_107[%arg1, %arg2, %arg3] : memref<1x64x192xf32>
        }
      }
    }
    %alloc_109 = memref.alloc() {alignment = 16 : i64} : memref<1x64x64xf32>
    %alloc_110 = memref.alloc() {alignment = 16 : i64} : memref<1x64x64xf32>
    %alloc_111 = memref.alloc() {alignment = 16 : i64} : memref<1x64x64xf32>
    affine.for %arg1 = 0 to 1 {
      affine.for %arg2 = 0 to 64 {
        affine.for %arg3 = 0 to 64 {
          %53 = affine.load %alloc_107[%arg1, %arg2, %arg3] : memref<1x64x192xf32>
          affine.store %53, %alloc_109[%arg1, %arg2, %arg3] : memref<1x64x64xf32>
        }
      }
    }
    affine.for %arg1 = 0 to 1 {
      affine.for %arg2 = 0 to 64 {
        affine.for %arg3 = 0 to 64 {
          %53 = affine.apply #map(%arg3)
          %54 = affine.load %alloc_107[%arg1, %arg2, %53] : memref<1x64x192xf32>
          affine.store %54, %alloc_110[%arg1, %arg2, %arg3] : memref<1x64x64xf32>
        }
      }
    }
    affine.for %arg1 = 0 to 1 {
      affine.for %arg2 = 0 to 64 {
        affine.for %arg3 = 0 to 64 {
          %53 = affine.apply #map1(%arg3)
          %54 = affine.load %alloc_107[%arg1, %arg2, %53] : memref<1x64x192xf32>
          affine.store %54, %alloc_111[%arg1, %arg2, %arg3] : memref<1x64x64xf32>
        }
      }
    }
    %reinterpret_cast_112 = memref.reinterpret_cast %alloc_110 to offset: [0], sizes: [1, 64, 4, 16], strides: [4096, 64, 16, 1] : memref<1x64x64xf32> to memref<1x64x4x16xf32>
    %reinterpret_cast_113 = memref.reinterpret_cast %alloc_109 to offset: [0], sizes: [1, 64, 4, 16], strides: [4096, 64, 16, 1] : memref<1x64x64xf32> to memref<1x64x4x16xf32>
    %alloc_114 = memref.alloc() {alignment = 16 : i64} : memref<1x4x64x16xf32>
    affine.for %arg1 = 0 to 1 {
      affine.for %arg2 = 0 to 64 {
        affine.for %arg3 = 0 to 4 {
          %53 = affine.apply #map2(%arg1, %arg2, %arg3)
          %54 = affine.apply #map3(%arg1, %arg2, %arg3)
          "krnl.memcpy"(%alloc_114, %reinterpret_cast_113, %c16_i64, %54, %53) : (memref<1x4x64x16xf32>, memref<1x64x4x16xf32>, i64, index, index) -> ()
        }
      }
    }
    %reinterpret_cast_115 = memref.reinterpret_cast %alloc_111 to offset: [0], sizes: [1, 64, 4, 16], strides: [4096, 64, 16, 1] : memref<1x64x64xf32> to memref<1x64x4x16xf32>
    %alloc_116 = memref.alloc() {alignment = 16 : i64} : memref<1x4x64x16xf32>
    affine.for %arg1 = 0 to 1 {
      affine.for %arg2 = 0 to 64 {
        affine.for %arg3 = 0 to 4 {
          %53 = affine.apply #map2(%arg1, %arg2, %arg3)
          %54 = affine.apply #map3(%arg1, %arg2, %arg3)
          "krnl.memcpy"(%alloc_116, %reinterpret_cast_115, %c16_i64, %54, %53) : (memref<1x4x64x16xf32>, memref<1x64x4x16xf32>, i64, index, index) -> ()
        }
      }
    }
    %alloc_117 = memref.alloc() {alignment = 16 : i64} : memref<1x4x16x64xf32>
    affine.for %arg1 = 0 to 1 {
      affine.for %arg2 = 0 to 64 {
        affine.for %arg3 = 0 to 4 {
          affine.for %arg4 = 0 to 16 {
            %53 = affine.load %reinterpret_cast_112[%arg1, %arg2, %arg3, %arg4] : memref<1x64x4x16xf32>
            affine.store %53, %alloc_117[%arg1, %arg3, %arg4, %arg2] : memref<1x4x16x64xf32>
          }
        }
      }
    }
    %alloc_118 = memref.alloc() {alignment = 16 : i64} : memref<1x4x64x64xf32>
    %alloca_119 = memref.alloca() : memref<f32>
    affine.for %arg1 = 0 to 1 {
      affine.for %arg2 = 0 to 4 {
        affine.for %arg3 = 0 to 64 {
          affine.for %arg4 = 0 to 64 {
            affine.store %cst_1, %alloca_119[] : memref<f32>
            affine.for %arg5 = 0 to 16 {
              %54 = affine.load %alloc_114[%arg1, %arg2, %arg3, %arg5] : memref<1x4x64x16xf32>
              %55 = affine.load %alloc_117[%arg1, %arg2, %arg5, %arg4] : memref<1x4x16x64xf32>
              %56 = affine.load %alloca_119[] : memref<f32>
              %57 = arith.mulf %54, %55 : f32
              %58 = arith.addf %56, %57 : f32
              affine.store %58, %alloca_119[] : memref<f32>
            }
            %53 = affine.load %alloca_119[] : memref<f32>
            affine.store %53, %alloc_118[%arg1, %arg2, %arg3, %arg4] : memref<1x4x64x64xf32>
          }
        }
      }
    }
    %alloc_120 = memref.alloc() {alignment = 16 : i64} : memref<1x4x64x64xf32>
    affine.for %arg1 = 0 to 1 {
      affine.for %arg2 = 0 to 4 {
        affine.for %arg3 = 0 to 64 {
          affine.for %arg4 = 0 to 64 {
            %53 = affine.load %alloc_118[%c0, %arg2, %arg3, %arg4] : memref<1x4x64x64xf32>
            %54 = affine.load %16[] : memref<f32>
            %55 = arith.mulf %53, %54 : f32
            affine.store %55, %alloc_120[%arg1, %arg2, %arg3, %arg4] : memref<1x4x64x64xf32>
          }
        }
      }
    }
    %alloc_121 = memref.alloc() {alignment = 16 : i64} : memref<1x4x64x64xf32>
    affine.for %arg1 = 0 to 1 {
      affine.for %arg2 = 0 to 4 {
        affine.for %arg3 = 0 to 64 {
          affine.for %arg4 = 0 to 64 {
            %53 = affine.load %36[%c0, %c0, %arg3, %arg4] : memref<1x1x64x64xi1>
            %54 = affine.load %15[] : memref<f32>
            %55 = affine.load %alloc_120[%c0, %arg2, %arg3, %arg4] : memref<1x4x64x64xf32>
            %56 = arith.select %53, %54, %55 : f32
            affine.store %56, %alloc_121[%arg1, %arg2, %arg3, %arg4] : memref<1x4x64x64xf32>
          }
        }
      }
    }
    %alloc_122 = memref.alloc() {alignment = 16 : i64} : memref<1x4x64x64xf32>
    %alloc_123 = memref.alloc() : memref<f32>
    %alloc_124 = memref.alloc() : memref<f32>
    affine.for %arg1 = 0 to 1 {
      affine.for %arg2 = 0 to 4 {
        affine.for %arg3 = 0 to 64 {
          affine.store %cst_1, %alloc_123[] : memref<f32>
          affine.store %cst_0, %alloc_124[] : memref<f32>
          affine.for %arg4 = 0 to 64 {
            %55 = affine.load %alloc_124[] : memref<f32>
            %56 = affine.load %alloc_121[%arg1, %arg2, %arg3, %arg4] : memref<1x4x64x64xf32>
            %57 = arith.cmpf ogt, %55, %56 : f32
            %58 = arith.select %57, %55, %56 : f32
            affine.store %58, %alloc_124[] : memref<f32>
          }
          %53 = affine.load %alloc_124[] : memref<f32>
          affine.for %arg4 = 0 to 64 {
            %55 = affine.load %alloc_123[] : memref<f32>
            %56 = affine.load %alloc_121[%arg1, %arg2, %arg3, %arg4] : memref<1x4x64x64xf32>
            %57 = arith.subf %56, %53 : f32
            %58 = math.exp %57 : f32
            %59 = arith.addf %55, %58 : f32
            affine.store %59, %alloc_123[] : memref<f32>
            affine.store %58, %alloc_122[%arg1, %arg2, %arg3, %arg4] : memref<1x4x64x64xf32>
          }
          %54 = affine.load %alloc_123[] : memref<f32>
          affine.for %arg4 = 0 to 64 {
            %55 = affine.load %alloc_122[%arg1, %arg2, %arg3, %arg4] : memref<1x4x64x64xf32>
            %56 = arith.divf %55, %54 : f32
            affine.store %56, %alloc_122[%arg1, %arg2, %arg3, %arg4] : memref<1x4x64x64xf32>
          }
        }
      }
    }
    %alloc_125 = memref.alloc() {alignment = 16 : i64} : memref<1x4x64x16xf32>
    %alloca_126 = memref.alloca() : memref<f32>
    affine.for %arg1 = 0 to 1 {
      affine.for %arg2 = 0 to 4 {
        affine.for %arg3 = 0 to 64 {
          affine.for %arg4 = 0 to 16 {
            affine.store %cst_1, %alloca_126[] : memref<f32>
            affine.for %arg5 = 0 to 64 {
              %54 = affine.load %alloc_122[%arg1, %arg2, %arg3, %arg5] : memref<1x4x64x64xf32>
              %55 = affine.load %alloc_116[%arg1, %arg2, %arg5, %arg4] : memref<1x4x64x16xf32>
              %56 = affine.load %alloca_126[] : memref<f32>
              %57 = arith.mulf %54, %55 : f32
              %58 = arith.addf %56, %57 : f32
              affine.store %58, %alloca_126[] : memref<f32>
            }
            %53 = affine.load %alloca_126[] : memref<f32>
            affine.store %53, %alloc_125[%arg1, %arg2, %arg3, %arg4] : memref<1x4x64x16xf32>
          }
        }
      }
    }
    %alloc_127 = memref.alloc() {alignment = 16 : i64} : memref<1x64x4x16xf32>
    affine.for %arg1 = 0 to 1 {
      affine.for %arg2 = 0 to 4 {
        affine.for %arg3 = 0 to 64 {
          %53 = affine.apply #map4(%arg1, %arg2, %arg3)
          %54 = affine.apply #map5(%arg1, %arg2, %arg3)
          "krnl.memcpy"(%alloc_127, %alloc_125, %c16_i64, %54, %53) : (memref<1x64x4x16xf32>, memref<1x4x64x16xf32>, i64, index, index) -> ()
        }
      }
    }
    %reinterpret_cast_128 = memref.reinterpret_cast %alloc_127 to offset: [0], sizes: [1, 64, 64], strides: [4096, 64, 1] : memref<1x64x4x16xf32> to memref<1x64x64xf32>
    %alloc_129 = memref.alloc() {alignment = 16 : i64} : memref<1x64x64xf32>
    %alloca_130 = memref.alloca() : memref<f32>
    affine.for %arg1 = 0 to 1 {
      affine.for %arg2 = 0 to 64 {
        affine.for %arg3 = 0 to 64 {
          affine.store %cst_1, %alloca_130[] : memref<f32>
          affine.for %arg4 = 0 to 64 {
            %54 = affine.load %reinterpret_cast_128[%arg1, %arg2, %arg4] : memref<1x64x64xf32>
            %55 = affine.load %45[%arg4, %arg3] : memref<64x64xf32>
            %56 = affine.load %alloca_130[] : memref<f32>
            %57 = arith.mulf %54, %55 : f32
            %58 = arith.addf %56, %57 : f32
            affine.store %58, %alloca_130[] : memref<f32>
          }
          %53 = affine.load %alloca_130[] : memref<f32>
          affine.store %53, %alloc_129[%arg1, %arg2, %arg3] : memref<1x64x64xf32>
        }
      }
    }
    %alloc_131 = memref.alloc() {alignment = 16 : i64} : memref<1x64x64xf32>
    affine.for %arg1 = 0 to 1 {
      affine.for %arg2 = 0 to 64 {
        affine.for %arg3 = 0 to 64 {
          %53 = affine.load %alloc_100[%c0, %arg2, %arg3] : memref<1x64x64xf32>
          %54 = affine.load %alloc_129[%c0, %arg2, %arg3] : memref<1x64x64xf32>
          %55 = arith.addf %53, %54 : f32
          affine.store %55, %alloc_131[%arg1, %arg2, %arg3] : memref<1x64x64xf32>
        }
      }
    }
    %alloc_132 = memref.alloc() {alignment = 16 : i64} : memref<1x64x1xf32>
    affine.for %arg1 = 0 to 1 {
      affine.for %arg2 = 0 to 64 {
        affine.for %arg3 = 0 to 1 {
          affine.store %cst_1, %alloc_132[%arg1, %arg2, %arg3] : memref<1x64x1xf32>
        }
      }
    }
    affine.for %arg1 = 0 to 1 {
      affine.for %arg2 = 0 to 64 {
        affine.for %arg3 = 0 to 64 {
          %53 = affine.load %alloc_131[%arg1, %arg2, %arg3] : memref<1x64x64xf32>
          %54 = affine.load %alloc_132[%arg1, %arg2, %c0] : memref<1x64x1xf32>
          %55 = arith.addf %54, %53 : f32
          affine.store %55, %alloc_132[%arg1, %arg2, %c0] : memref<1x64x1xf32>
        }
      }
    }
    affine.for %arg1 = 0 to 1 {
      affine.for %arg2 = 0 to 64 {
        affine.for %arg3 = 0 to 1 {
          %53 = affine.load %alloc_132[%arg1, %arg2, %arg3] : memref<1x64x1xf32>
          %54 = arith.divf %53, %cst : f32
          affine.store %54, %alloc_132[%arg1, %arg2, %arg3] : memref<1x64x1xf32>
        }
      }
    }
    %alloc_133 = memref.alloc() {alignment = 16 : i64} : memref<1x64x64xf32>
    affine.for %arg1 = 0 to 1 {
      affine.for %arg2 = 0 to 64 {
        affine.for %arg3 = 0 to 64 {
          %53 = affine.load %alloc_131[%c0, %arg2, %arg3] : memref<1x64x64xf32>
          %54 = affine.load %alloc_132[%c0, %arg2, %c0] : memref<1x64x1xf32>
          %55 = arith.subf %53, %54 : f32
          affine.store %55, %alloc_133[%arg1, %arg2, %arg3] : memref<1x64x64xf32>
        }
      }
    }
    %alloc_134 = memref.alloc() {alignment = 16 : i64} : memref<1x64x64xf32>
    affine.for %arg1 = 0 to 1 {
      affine.for %arg2 = 0 to 64 {
        affine.for %arg3 = 0 to 64 {
          %53 = affine.load %alloc_133[%c0, %arg2, %arg3] : memref<1x64x64xf32>
          %54 = affine.load %alloc_133[%c0, %arg2, %arg3] : memref<1x64x64xf32>
          %55 = arith.mulf %53, %54 : f32
          affine.store %55, %alloc_134[%arg1, %arg2, %arg3] : memref<1x64x64xf32>
        }
      }
    }
    %alloc_135 = memref.alloc() {alignment = 16 : i64} : memref<1x64x1xf32>
    affine.for %arg1 = 0 to 1 {
      affine.for %arg2 = 0 to 64 {
        affine.for %arg3 = 0 to 1 {
          affine.store %cst_1, %alloc_135[%arg1, %arg2, %arg3] : memref<1x64x1xf32>
        }
      }
    }
    affine.for %arg1 = 0 to 1 {
      affine.for %arg2 = 0 to 64 {
        affine.for %arg3 = 0 to 64 {
          %53 = affine.load %alloc_134[%arg1, %arg2, %arg3] : memref<1x64x64xf32>
          %54 = affine.load %alloc_135[%arg1, %arg2, %c0] : memref<1x64x1xf32>
          %55 = arith.addf %54, %53 : f32
          affine.store %55, %alloc_135[%arg1, %arg2, %c0] : memref<1x64x1xf32>
        }
      }
    }
    affine.for %arg1 = 0 to 1 {
      affine.for %arg2 = 0 to 64 {
        affine.for %arg3 = 0 to 1 {
          %53 = affine.load %alloc_135[%arg1, %arg2, %arg3] : memref<1x64x1xf32>
          %54 = arith.divf %53, %cst : f32
          affine.store %54, %alloc_135[%arg1, %arg2, %arg3] : memref<1x64x1xf32>
        }
      }
    }
    %alloc_136 = memref.alloc() {alignment = 16 : i64} : memref<1x64x1xf32>
    affine.for %arg1 = 0 to 1 {
      affine.for %arg2 = 0 to 64 {
        affine.for %arg3 = 0 to 1 {
          %53 = affine.load %alloc_135[%c0, %arg2, %c0] : memref<1x64x1xf32>
          %54 = affine.load %14[] : memref<f32>
          %55 = arith.addf %53, %54 : f32
          %56 = math.sqrt %55 : f32
          affine.store %56, %alloc_136[%arg1, %arg2, %arg3] : memref<1x64x1xf32>
        }
      }
    }
    %alloc_137 = memref.alloc() {alignment = 16 : i64} : memref<1x64x64xf32>
    affine.for %arg1 = 0 to 1 {
      affine.for %arg2 = 0 to 64 {
        affine.for %arg3 = 0 to 64 {
          %53 = affine.load %alloc_133[%c0, %arg2, %arg3] : memref<1x64x64xf32>
          %54 = affine.load %alloc_136[%c0, %arg2, %c0] : memref<1x64x1xf32>
          %55 = arith.divf %53, %54 : f32
          affine.store %55, %alloc_137[%arg1, %arg2, %arg3] : memref<1x64x64xf32>
        }
      }
    }
    %alloc_138 = memref.alloc() {alignment = 16 : i64} : memref<1x64x256xf32>
    %alloca_139 = memref.alloca() : memref<f32>
    affine.for %arg1 = 0 to 1 {
      affine.for %arg2 = 0 to 64 {
        affine.for %arg3 = 0 to 256 {
          affine.store %cst_1, %alloca_139[] : memref<f32>
          affine.for %arg4 = 0 to 64 {
            %54 = affine.load %alloc_137[%arg1, %arg2, %arg4] : memref<1x64x64xf32>
            %55 = affine.load %46[%arg4, %arg3] : memref<64x256xf32>
            %56 = affine.load %alloca_139[] : memref<f32>
            %57 = arith.mulf %54, %55 : f32
            %58 = arith.addf %56, %57 : f32
            affine.store %58, %alloca_139[] : memref<f32>
          }
          %53 = affine.load %alloca_139[] : memref<f32>
          affine.store %53, %alloc_138[%arg1, %arg2, %arg3] : memref<1x64x256xf32>
        }
      }
    }
    %alloc_140 = memref.alloc() {alignment = 16 : i64} : memref<1x64x256xf32>
    affine.for %arg1 = 0 to 1 {
      affine.for %arg2 = 0 to 64 {
        affine.for %arg3 = 0 to 256 {
          %53 = affine.load %alloc_138[%c0, %arg2, %arg3] : memref<1x64x256xf32>
          %54 = affine.load %alloc_138[%c0, %arg2, %arg3] : memref<1x64x256xf32>
          %55 = arith.mulf %53, %54 : f32
          affine.store %55, %alloc_140[%arg1, %arg2, %arg3] : memref<1x64x256xf32>
        }
      }
    }
    %alloc_141 = memref.alloc() {alignment = 16 : i64} : memref<1x64x256xf32>
    affine.for %arg1 = 0 to 1 {
      affine.for %arg2 = 0 to 64 {
        affine.for %arg3 = 0 to 256 {
          %53 = affine.load %alloc_140[%c0, %arg2, %arg3] : memref<1x64x256xf32>
          %54 = affine.load %alloc_138[%c0, %arg2, %arg3] : memref<1x64x256xf32>
          %55 = arith.mulf %53, %54 : f32
          affine.store %55, %alloc_141[%arg1, %arg2, %arg3] : memref<1x64x256xf32>
        }
      }
    }
    %alloc_142 = memref.alloc() {alignment = 16 : i64} : memref<1x64x256xf32>
    affine.for %arg1 = 0 to 1 {
      affine.for %arg2 = 0 to 64 {
        affine.for %arg3 = 0 to 256 {
          %53 = affine.load %alloc_141[%c0, %arg2, %arg3] : memref<1x64x256xf32>
          %54 = affine.load %12[] : memref<f32>
          %55 = arith.mulf %53, %54 : f32
          affine.store %55, %alloc_142[%arg1, %arg2, %arg3] : memref<1x64x256xf32>
        }
      }
    }
    %alloc_143 = memref.alloc() {alignment = 16 : i64} : memref<1x64x256xf32>
    affine.for %arg1 = 0 to 1 {
      affine.for %arg2 = 0 to 64 {
        affine.for %arg3 = 0 to 256 {
          %53 = affine.load %alloc_138[%c0, %arg2, %arg3] : memref<1x64x256xf32>
          %54 = affine.load %alloc_142[%c0, %arg2, %arg3] : memref<1x64x256xf32>
          %55 = arith.addf %53, %54 : f32
          affine.store %55, %alloc_143[%arg1, %arg2, %arg3] : memref<1x64x256xf32>
        }
      }
    }
    %alloc_144 = memref.alloc() {alignment = 16 : i64} : memref<1x64x256xf32>
    affine.for %arg1 = 0 to 1 {
      affine.for %arg2 = 0 to 64 {
        affine.for %arg3 = 0 to 256 {
          %53 = affine.load %alloc_143[%c0, %arg2, %arg3] : memref<1x64x256xf32>
          %54 = affine.load %11[] : memref<f32>
          %55 = arith.mulf %53, %54 : f32
          %56 = math.tanh %55 : f32
          affine.store %56, %alloc_144[%arg1, %arg2, %arg3] : memref<1x64x256xf32>
        }
      }
    }
    %alloc_145 = memref.alloc() {alignment = 16 : i64} : memref<1x64x256xf32>
    affine.for %arg1 = 0 to 1 {
      affine.for %arg2 = 0 to 64 {
        affine.for %arg3 = 0 to 256 {
          %53 = affine.load %alloc_144[%c0, %arg2, %arg3] : memref<1x64x256xf32>
          %54 = affine.load %10[] : memref<f32>
          %55 = arith.addf %53, %54 : f32
          affine.store %55, %alloc_145[%arg1, %arg2, %arg3] : memref<1x64x256xf32>
        }
      }
    }
    %alloc_146 = memref.alloc() {alignment = 16 : i64} : memref<1x64x256xf32>
    affine.for %arg1 = 0 to 1 {
      affine.for %arg2 = 0 to 64 {
        affine.for %arg3 = 0 to 256 {
          %53 = affine.load %alloc_138[%c0, %arg2, %arg3] : memref<1x64x256xf32>
          %54 = affine.load %alloc_145[%c0, %arg2, %arg3] : memref<1x64x256xf32>
          %55 = arith.mulf %53, %54 : f32
          affine.store %55, %alloc_146[%arg1, %arg2, %arg3] : memref<1x64x256xf32>
        }
      }
    }
    %alloc_147 = memref.alloc() {alignment = 16 : i64} : memref<1x64x256xf32>
    affine.for %arg1 = 0 to 1 {
      affine.for %arg2 = 0 to 64 {
        affine.for %arg3 = 0 to 256 {
          %53 = affine.load %alloc_146[%c0, %arg2, %arg3] : memref<1x64x256xf32>
          %54 = affine.load %13[] : memref<f32>
          %55 = arith.mulf %53, %54 : f32
          affine.store %55, %alloc_147[%arg1, %arg2, %arg3] : memref<1x64x256xf32>
        }
      }
    }
    %alloc_148 = memref.alloc() {alignment = 16 : i64} : memref<1x64x64xf32>
    %alloca_149 = memref.alloca() : memref<f32>
    affine.for %arg1 = 0 to 1 {
      affine.for %arg2 = 0 to 64 {
        affine.for %arg3 = 0 to 64 {
          affine.store %cst_1, %alloca_149[] : memref<f32>
          affine.for %arg4 = 0 to 256 {
            %54 = affine.load %alloc_147[%arg1, %arg2, %arg4] : memref<1x64x256xf32>
            %55 = affine.load %47[%arg4, %arg3] : memref<256x64xf32>
            %56 = affine.load %alloca_149[] : memref<f32>
            %57 = arith.mulf %54, %55 : f32
            %58 = arith.addf %56, %57 : f32
            affine.store %58, %alloca_149[] : memref<f32>
          }
          %53 = affine.load %alloca_149[] : memref<f32>
          affine.store %53, %alloc_148[%arg1, %arg2, %arg3] : memref<1x64x64xf32>
        }
      }
    }
    %alloc_150 = memref.alloc() {alignment = 16 : i64} : memref<1x64x64xf32>
    affine.for %arg1 = 0 to 1 {
      affine.for %arg2 = 0 to 64 {
        affine.for %arg3 = 0 to 64 {
          %53 = affine.load %alloc_131[%c0, %arg2, %arg3] : memref<1x64x64xf32>
          %54 = affine.load %alloc_148[%c0, %arg2, %arg3] : memref<1x64x64xf32>
          %55 = arith.addf %53, %54 : f32
          affine.store %55, %alloc_150[%arg1, %arg2, %arg3] : memref<1x64x64xf32>
        }
      }
    }
    %alloc_151 = memref.alloc() {alignment = 16 : i64} : memref<1x64x1xf32>
    affine.for %arg1 = 0 to 1 {
      affine.for %arg2 = 0 to 64 {
        affine.for %arg3 = 0 to 1 {
          affine.store %cst_1, %alloc_151[%arg1, %arg2, %arg3] : memref<1x64x1xf32>
        }
      }
    }
    affine.for %arg1 = 0 to 1 {
      affine.for %arg2 = 0 to 64 {
        affine.for %arg3 = 0 to 64 {
          %53 = affine.load %alloc_150[%arg1, %arg2, %arg3] : memref<1x64x64xf32>
          %54 = affine.load %alloc_151[%arg1, %arg2, %c0] : memref<1x64x1xf32>
          %55 = arith.addf %54, %53 : f32
          affine.store %55, %alloc_151[%arg1, %arg2, %c0] : memref<1x64x1xf32>
        }
      }
    }
    affine.for %arg1 = 0 to 1 {
      affine.for %arg2 = 0 to 64 {
        affine.for %arg3 = 0 to 1 {
          %53 = affine.load %alloc_151[%arg1, %arg2, %arg3] : memref<1x64x1xf32>
          %54 = arith.divf %53, %cst : f32
          affine.store %54, %alloc_151[%arg1, %arg2, %arg3] : memref<1x64x1xf32>
        }
      }
    }
    %alloc_152 = memref.alloc() {alignment = 16 : i64} : memref<1x64x64xf32>
    affine.for %arg1 = 0 to 1 {
      affine.for %arg2 = 0 to 64 {
        affine.for %arg3 = 0 to 64 {
          %53 = affine.load %alloc_150[%c0, %arg2, %arg3] : memref<1x64x64xf32>
          %54 = affine.load %alloc_151[%c0, %arg2, %c0] : memref<1x64x1xf32>
          %55 = arith.subf %53, %54 : f32
          affine.store %55, %alloc_152[%arg1, %arg2, %arg3] : memref<1x64x64xf32>
        }
      }
    }
    %alloc_153 = memref.alloc() {alignment = 16 : i64} : memref<1x64x64xf32>
    affine.for %arg1 = 0 to 1 {
      affine.for %arg2 = 0 to 64 {
        affine.for %arg3 = 0 to 64 {
          %53 = affine.load %alloc_152[%c0, %arg2, %arg3] : memref<1x64x64xf32>
          %54 = affine.load %alloc_152[%c0, %arg2, %arg3] : memref<1x64x64xf32>
          %55 = arith.mulf %53, %54 : f32
          affine.store %55, %alloc_153[%arg1, %arg2, %arg3] : memref<1x64x64xf32>
        }
      }
    }
    %alloc_154 = memref.alloc() {alignment = 16 : i64} : memref<1x64x1xf32>
    affine.for %arg1 = 0 to 1 {
      affine.for %arg2 = 0 to 64 {
        affine.for %arg3 = 0 to 1 {
          affine.store %cst_1, %alloc_154[%arg1, %arg2, %arg3] : memref<1x64x1xf32>
        }
      }
    }
    affine.for %arg1 = 0 to 1 {
      affine.for %arg2 = 0 to 64 {
        affine.for %arg3 = 0 to 64 {
          %53 = affine.load %alloc_153[%arg1, %arg2, %arg3] : memref<1x64x64xf32>
          %54 = affine.load %alloc_154[%arg1, %arg2, %c0] : memref<1x64x1xf32>
          %55 = arith.addf %54, %53 : f32
          affine.store %55, %alloc_154[%arg1, %arg2, %c0] : memref<1x64x1xf32>
        }
      }
    }
    affine.for %arg1 = 0 to 1 {
      affine.for %arg2 = 0 to 64 {
        affine.for %arg3 = 0 to 1 {
          %53 = affine.load %alloc_154[%arg1, %arg2, %arg3] : memref<1x64x1xf32>
          %54 = arith.divf %53, %cst : f32
          affine.store %54, %alloc_154[%arg1, %arg2, %arg3] : memref<1x64x1xf32>
        }
      }
    }
    %alloc_155 = memref.alloc() {alignment = 16 : i64} : memref<1x64x1xf32>
    affine.for %arg1 = 0 to 1 {
      affine.for %arg2 = 0 to 64 {
        affine.for %arg3 = 0 to 1 {
          %53 = affine.load %alloc_154[%c0, %arg2, %c0] : memref<1x64x1xf32>
          %54 = affine.load %9[] : memref<f32>
          %55 = arith.addf %53, %54 : f32
          %56 = math.sqrt %55 : f32
          affine.store %56, %alloc_155[%arg1, %arg2, %arg3] : memref<1x64x1xf32>
        }
      }
    }
    %alloc_156 = memref.alloc() {alignment = 16 : i64} : memref<1x64x64xf32>
    affine.for %arg1 = 0 to 1 {
      affine.for %arg2 = 0 to 64 {
        affine.for %arg3 = 0 to 64 {
          %53 = affine.load %alloc_152[%c0, %arg2, %arg3] : memref<1x64x64xf32>
          %54 = affine.load %alloc_155[%c0, %arg2, %c0] : memref<1x64x1xf32>
          %55 = arith.divf %53, %54 : f32
          affine.store %55, %alloc_156[%arg1, %arg2, %arg3] : memref<1x64x64xf32>
        }
      }
    }
    %alloc_157 = memref.alloc() {alignment = 16 : i64} : memref<1x64x192xf32>
    %alloca_158 = memref.alloca() : memref<f32>
    affine.for %arg1 = 0 to 1 {
      affine.for %arg2 = 0 to 64 {
        affine.for %arg3 = 0 to 192 {
          affine.store %cst_1, %alloca_158[] : memref<f32>
          affine.for %arg4 = 0 to 64 {
            %54 = affine.load %alloc_156[%arg1, %arg2, %arg4] : memref<1x64x64xf32>
            %55 = affine.load %48[%arg4, %arg3] : memref<64x192xf32>
            %56 = affine.load %alloca_158[] : memref<f32>
            %57 = arith.mulf %54, %55 : f32
            %58 = arith.addf %56, %57 : f32
            affine.store %58, %alloca_158[] : memref<f32>
          }
          %53 = affine.load %alloca_158[] : memref<f32>
          affine.store %53, %alloc_157[%arg1, %arg2, %arg3] : memref<1x64x192xf32>
        }
      }
    }
    %alloc_159 = memref.alloc() {alignment = 16 : i64} : memref<1x64x64xf32>
    %alloc_160 = memref.alloc() {alignment = 16 : i64} : memref<1x64x64xf32>
    %alloc_161 = memref.alloc() {alignment = 16 : i64} : memref<1x64x64xf32>
    affine.for %arg1 = 0 to 1 {
      affine.for %arg2 = 0 to 64 {
        affine.for %arg3 = 0 to 64 {
          %53 = affine.load %alloc_157[%arg1, %arg2, %arg3] : memref<1x64x192xf32>
          affine.store %53, %alloc_159[%arg1, %arg2, %arg3] : memref<1x64x64xf32>
        }
      }
    }
    affine.for %arg1 = 0 to 1 {
      affine.for %arg2 = 0 to 64 {
        affine.for %arg3 = 0 to 64 {
          %53 = affine.apply #map(%arg3)
          %54 = affine.load %alloc_157[%arg1, %arg2, %53] : memref<1x64x192xf32>
          affine.store %54, %alloc_160[%arg1, %arg2, %arg3] : memref<1x64x64xf32>
        }
      }
    }
    affine.for %arg1 = 0 to 1 {
      affine.for %arg2 = 0 to 64 {
        affine.for %arg3 = 0 to 64 {
          %53 = affine.apply #map1(%arg3)
          %54 = affine.load %alloc_157[%arg1, %arg2, %53] : memref<1x64x192xf32>
          affine.store %54, %alloc_161[%arg1, %arg2, %arg3] : memref<1x64x64xf32>
        }
      }
    }
    %reinterpret_cast_162 = memref.reinterpret_cast %alloc_160 to offset: [0], sizes: [1, 64, 4, 16], strides: [4096, 64, 16, 1] : memref<1x64x64xf32> to memref<1x64x4x16xf32>
    %reinterpret_cast_163 = memref.reinterpret_cast %alloc_159 to offset: [0], sizes: [1, 64, 4, 16], strides: [4096, 64, 16, 1] : memref<1x64x64xf32> to memref<1x64x4x16xf32>
    %alloc_164 = memref.alloc() {alignment = 16 : i64} : memref<1x4x64x16xf32>
    affine.for %arg1 = 0 to 1 {
      affine.for %arg2 = 0 to 64 {
        affine.for %arg3 = 0 to 4 {
          %53 = affine.apply #map2(%arg1, %arg2, %arg3)
          %54 = affine.apply #map3(%arg1, %arg2, %arg3)
          "krnl.memcpy"(%alloc_164, %reinterpret_cast_163, %c16_i64, %54, %53) : (memref<1x4x64x16xf32>, memref<1x64x4x16xf32>, i64, index, index) -> ()
        }
      }
    }
    %reinterpret_cast_165 = memref.reinterpret_cast %alloc_161 to offset: [0], sizes: [1, 64, 4, 16], strides: [4096, 64, 16, 1] : memref<1x64x64xf32> to memref<1x64x4x16xf32>
    %alloc_166 = memref.alloc() {alignment = 16 : i64} : memref<1x4x64x16xf32>
    affine.for %arg1 = 0 to 1 {
      affine.for %arg2 = 0 to 64 {
        affine.for %arg3 = 0 to 4 {
          %53 = affine.apply #map2(%arg1, %arg2, %arg3)
          %54 = affine.apply #map3(%arg1, %arg2, %arg3)
          "krnl.memcpy"(%alloc_166, %reinterpret_cast_165, %c16_i64, %54, %53) : (memref<1x4x64x16xf32>, memref<1x64x4x16xf32>, i64, index, index) -> ()
        }
      }
    }
    %alloc_167 = memref.alloc() {alignment = 16 : i64} : memref<1x4x16x64xf32>
    affine.for %arg1 = 0 to 1 {
      affine.for %arg2 = 0 to 64 {
        affine.for %arg3 = 0 to 4 {
          affine.for %arg4 = 0 to 16 {
            %53 = affine.load %reinterpret_cast_162[%arg1, %arg2, %arg3, %arg4] : memref<1x64x4x16xf32>
            affine.store %53, %alloc_167[%arg1, %arg3, %arg4, %arg2] : memref<1x4x16x64xf32>
          }
        }
      }
    }
    %alloc_168 = memref.alloc() {alignment = 16 : i64} : memref<1x4x64x64xf32>
    %alloca_169 = memref.alloca() : memref<f32>
    affine.for %arg1 = 0 to 1 {
      affine.for %arg2 = 0 to 4 {
        affine.for %arg3 = 0 to 64 {
          affine.for %arg4 = 0 to 64 {
            affine.store %cst_1, %alloca_169[] : memref<f32>
            affine.for %arg5 = 0 to 16 {
              %54 = affine.load %alloc_164[%arg1, %arg2, %arg3, %arg5] : memref<1x4x64x16xf32>
              %55 = affine.load %alloc_167[%arg1, %arg2, %arg5, %arg4] : memref<1x4x16x64xf32>
              %56 = affine.load %alloca_169[] : memref<f32>
              %57 = arith.mulf %54, %55 : f32
              %58 = arith.addf %56, %57 : f32
              affine.store %58, %alloca_169[] : memref<f32>
            }
            %53 = affine.load %alloca_169[] : memref<f32>
            affine.store %53, %alloc_168[%arg1, %arg2, %arg3, %arg4] : memref<1x4x64x64xf32>
          }
        }
      }
    }
    %alloc_170 = memref.alloc() {alignment = 16 : i64} : memref<1x4x64x64xf32>
    affine.for %arg1 = 0 to 1 {
      affine.for %arg2 = 0 to 4 {
        affine.for %arg3 = 0 to 64 {
          affine.for %arg4 = 0 to 64 {
            %53 = affine.load %alloc_168[%c0, %arg2, %arg3, %arg4] : memref<1x4x64x64xf32>
            %54 = affine.load %8[] : memref<f32>
            %55 = arith.mulf %53, %54 : f32
            affine.store %55, %alloc_170[%arg1, %arg2, %arg3, %arg4] : memref<1x4x64x64xf32>
          }
        }
      }
    }
    %alloc_171 = memref.alloc() {alignment = 16 : i64} : memref<1x4x64x64xf32>
    affine.for %arg1 = 0 to 1 {
      affine.for %arg2 = 0 to 4 {
        affine.for %arg3 = 0 to 64 {
          affine.for %arg4 = 0 to 64 {
            %53 = affine.load %36[%c0, %c0, %arg3, %arg4] : memref<1x1x64x64xi1>
            %54 = affine.load %7[] : memref<f32>
            %55 = affine.load %alloc_170[%c0, %arg2, %arg3, %arg4] : memref<1x4x64x64xf32>
            %56 = arith.select %53, %54, %55 : f32
            affine.store %56, %alloc_171[%arg1, %arg2, %arg3, %arg4] : memref<1x4x64x64xf32>
          }
        }
      }
    }
    %alloc_172 = memref.alloc() {alignment = 16 : i64} : memref<1x4x64x64xf32>
    %alloc_173 = memref.alloc() : memref<f32>
    %alloc_174 = memref.alloc() : memref<f32>
    affine.for %arg1 = 0 to 1 {
      affine.for %arg2 = 0 to 4 {
        affine.for %arg3 = 0 to 64 {
          affine.store %cst_1, %alloc_173[] : memref<f32>
          affine.store %cst_0, %alloc_174[] : memref<f32>
          affine.for %arg4 = 0 to 64 {
            %55 = affine.load %alloc_174[] : memref<f32>
            %56 = affine.load %alloc_171[%arg1, %arg2, %arg3, %arg4] : memref<1x4x64x64xf32>
            %57 = arith.cmpf ogt, %55, %56 : f32
            %58 = arith.select %57, %55, %56 : f32
            affine.store %58, %alloc_174[] : memref<f32>
          }
          %53 = affine.load %alloc_174[] : memref<f32>
          affine.for %arg4 = 0 to 64 {
            %55 = affine.load %alloc_173[] : memref<f32>
            %56 = affine.load %alloc_171[%arg1, %arg2, %arg3, %arg4] : memref<1x4x64x64xf32>
            %57 = arith.subf %56, %53 : f32
            %58 = math.exp %57 : f32
            %59 = arith.addf %55, %58 : f32
            affine.store %59, %alloc_173[] : memref<f32>
            affine.store %58, %alloc_172[%arg1, %arg2, %arg3, %arg4] : memref<1x4x64x64xf32>
          }
          %54 = affine.load %alloc_173[] : memref<f32>
          affine.for %arg4 = 0 to 64 {
            %55 = affine.load %alloc_172[%arg1, %arg2, %arg3, %arg4] : memref<1x4x64x64xf32>
            %56 = arith.divf %55, %54 : f32
            affine.store %56, %alloc_172[%arg1, %arg2, %arg3, %arg4] : memref<1x4x64x64xf32>
          }
        }
      }
    }
    %alloc_175 = memref.alloc() {alignment = 16 : i64} : memref<1x4x64x16xf32>
    %alloca_176 = memref.alloca() : memref<f32>
    affine.for %arg1 = 0 to 1 {
      affine.for %arg2 = 0 to 4 {
        affine.for %arg3 = 0 to 64 {
          affine.for %arg4 = 0 to 16 {
            affine.store %cst_1, %alloca_176[] : memref<f32>
            affine.for %arg5 = 0 to 64 {
              %54 = affine.load %alloc_172[%arg1, %arg2, %arg3, %arg5] : memref<1x4x64x64xf32>
              %55 = affine.load %alloc_166[%arg1, %arg2, %arg5, %arg4] : memref<1x4x64x16xf32>
              %56 = affine.load %alloca_176[] : memref<f32>
              %57 = arith.mulf %54, %55 : f32
              %58 = arith.addf %56, %57 : f32
              affine.store %58, %alloca_176[] : memref<f32>
            }
            %53 = affine.load %alloca_176[] : memref<f32>
            affine.store %53, %alloc_175[%arg1, %arg2, %arg3, %arg4] : memref<1x4x64x16xf32>
          }
        }
      }
    }
    %alloc_177 = memref.alloc() {alignment = 16 : i64} : memref<1x64x4x16xf32>
    affine.for %arg1 = 0 to 1 {
      affine.for %arg2 = 0 to 4 {
        affine.for %arg3 = 0 to 64 {
          %53 = affine.apply #map4(%arg1, %arg2, %arg3)
          %54 = affine.apply #map5(%arg1, %arg2, %arg3)
          "krnl.memcpy"(%alloc_177, %alloc_175, %c16_i64, %54, %53) : (memref<1x64x4x16xf32>, memref<1x4x64x16xf32>, i64, index, index) -> ()
        }
      }
    }
    %reinterpret_cast_178 = memref.reinterpret_cast %alloc_177 to offset: [0], sizes: [1, 64, 64], strides: [4096, 64, 1] : memref<1x64x4x16xf32> to memref<1x64x64xf32>
    %alloc_179 = memref.alloc() {alignment = 16 : i64} : memref<1x64x64xf32>
    %alloca_180 = memref.alloca() : memref<f32>
    affine.for %arg1 = 0 to 1 {
      affine.for %arg2 = 0 to 64 {
        affine.for %arg3 = 0 to 64 {
          affine.store %cst_1, %alloca_180[] : memref<f32>
          affine.for %arg4 = 0 to 64 {
            %54 = affine.load %reinterpret_cast_178[%arg1, %arg2, %arg4] : memref<1x64x64xf32>
            %55 = affine.load %49[%arg4, %arg3] : memref<64x64xf32>
            %56 = affine.load %alloca_180[] : memref<f32>
            %57 = arith.mulf %54, %55 : f32
            %58 = arith.addf %56, %57 : f32
            affine.store %58, %alloca_180[] : memref<f32>
          }
          %53 = affine.load %alloca_180[] : memref<f32>
          affine.store %53, %alloc_179[%arg1, %arg2, %arg3] : memref<1x64x64xf32>
        }
      }
    }
    %alloc_181 = memref.alloc() {alignment = 16 : i64} : memref<1x64x64xf32>
    affine.for %arg1 = 0 to 1 {
      affine.for %arg2 = 0 to 64 {
        affine.for %arg3 = 0 to 64 {
          %53 = affine.load %alloc_150[%c0, %arg2, %arg3] : memref<1x64x64xf32>
          %54 = affine.load %alloc_179[%c0, %arg2, %arg3] : memref<1x64x64xf32>
          %55 = arith.addf %53, %54 : f32
          affine.store %55, %alloc_181[%arg1, %arg2, %arg3] : memref<1x64x64xf32>
        }
      }
    }
    %alloc_182 = memref.alloc() {alignment = 16 : i64} : memref<1x64x1xf32>
    affine.for %arg1 = 0 to 1 {
      affine.for %arg2 = 0 to 64 {
        affine.for %arg3 = 0 to 1 {
          affine.store %cst_1, %alloc_182[%arg1, %arg2, %arg3] : memref<1x64x1xf32>
        }
      }
    }
    affine.for %arg1 = 0 to 1 {
      affine.for %arg2 = 0 to 64 {
        affine.for %arg3 = 0 to 64 {
          %53 = affine.load %alloc_181[%arg1, %arg2, %arg3] : memref<1x64x64xf32>
          %54 = affine.load %alloc_182[%arg1, %arg2, %c0] : memref<1x64x1xf32>
          %55 = arith.addf %54, %53 : f32
          affine.store %55, %alloc_182[%arg1, %arg2, %c0] : memref<1x64x1xf32>
        }
      }
    }
    affine.for %arg1 = 0 to 1 {
      affine.for %arg2 = 0 to 64 {
        affine.for %arg3 = 0 to 1 {
          %53 = affine.load %alloc_182[%arg1, %arg2, %arg3] : memref<1x64x1xf32>
          %54 = arith.divf %53, %cst : f32
          affine.store %54, %alloc_182[%arg1, %arg2, %arg3] : memref<1x64x1xf32>
        }
      }
    }
    %alloc_183 = memref.alloc() {alignment = 16 : i64} : memref<1x64x64xf32>
    affine.for %arg1 = 0 to 1 {
      affine.for %arg2 = 0 to 64 {
        affine.for %arg3 = 0 to 64 {
          %53 = affine.load %alloc_181[%c0, %arg2, %arg3] : memref<1x64x64xf32>
          %54 = affine.load %alloc_182[%c0, %arg2, %c0] : memref<1x64x1xf32>
          %55 = arith.subf %53, %54 : f32
          affine.store %55, %alloc_183[%arg1, %arg2, %arg3] : memref<1x64x64xf32>
        }
      }
    }
    %alloc_184 = memref.alloc() {alignment = 16 : i64} : memref<1x64x64xf32>
    affine.for %arg1 = 0 to 1 {
      affine.for %arg2 = 0 to 64 {
        affine.for %arg3 = 0 to 64 {
          %53 = affine.load %alloc_183[%c0, %arg2, %arg3] : memref<1x64x64xf32>
          %54 = affine.load %alloc_183[%c0, %arg2, %arg3] : memref<1x64x64xf32>
          %55 = arith.mulf %53, %54 : f32
          affine.store %55, %alloc_184[%arg1, %arg2, %arg3] : memref<1x64x64xf32>
        }
      }
    }
    %alloc_185 = memref.alloc() {alignment = 16 : i64} : memref<1x64x1xf32>
    affine.for %arg1 = 0 to 1 {
      affine.for %arg2 = 0 to 64 {
        affine.for %arg3 = 0 to 1 {
          affine.store %cst_1, %alloc_185[%arg1, %arg2, %arg3] : memref<1x64x1xf32>
        }
      }
    }
    affine.for %arg1 = 0 to 1 {
      affine.for %arg2 = 0 to 64 {
        affine.for %arg3 = 0 to 64 {
          %53 = affine.load %alloc_184[%arg1, %arg2, %arg3] : memref<1x64x64xf32>
          %54 = affine.load %alloc_185[%arg1, %arg2, %c0] : memref<1x64x1xf32>
          %55 = arith.addf %54, %53 : f32
          affine.store %55, %alloc_185[%arg1, %arg2, %c0] : memref<1x64x1xf32>
        }
      }
    }
    affine.for %arg1 = 0 to 1 {
      affine.for %arg2 = 0 to 64 {
        affine.for %arg3 = 0 to 1 {
          %53 = affine.load %alloc_185[%arg1, %arg2, %arg3] : memref<1x64x1xf32>
          %54 = arith.divf %53, %cst : f32
          affine.store %54, %alloc_185[%arg1, %arg2, %arg3] : memref<1x64x1xf32>
        }
      }
    }
    %alloc_186 = memref.alloc() {alignment = 16 : i64} : memref<1x64x1xf32>
    affine.for %arg1 = 0 to 1 {
      affine.for %arg2 = 0 to 64 {
        affine.for %arg3 = 0 to 1 {
          %53 = affine.load %alloc_185[%c0, %arg2, %c0] : memref<1x64x1xf32>
          %54 = affine.load %6[] : memref<f32>
          %55 = arith.addf %53, %54 : f32
          %56 = math.sqrt %55 : f32
          affine.store %56, %alloc_186[%arg1, %arg2, %arg3] : memref<1x64x1xf32>
        }
      }
    }
    %alloc_187 = memref.alloc() {alignment = 16 : i64} : memref<1x64x64xf32>
    affine.for %arg1 = 0 to 1 {
      affine.for %arg2 = 0 to 64 {
        affine.for %arg3 = 0 to 64 {
          %53 = affine.load %alloc_183[%c0, %arg2, %arg3] : memref<1x64x64xf32>
          %54 = affine.load %alloc_186[%c0, %arg2, %c0] : memref<1x64x1xf32>
          %55 = arith.divf %53, %54 : f32
          affine.store %55, %alloc_187[%arg1, %arg2, %arg3] : memref<1x64x64xf32>
        }
      }
    }
    %alloc_188 = memref.alloc() {alignment = 16 : i64} : memref<1x64x256xf32>
    %alloca_189 = memref.alloca() : memref<f32>
    affine.for %arg1 = 0 to 1 {
      affine.for %arg2 = 0 to 64 {
        affine.for %arg3 = 0 to 256 {
          affine.store %cst_1, %alloca_189[] : memref<f32>
          affine.for %arg4 = 0 to 64 {
            %54 = affine.load %alloc_187[%arg1, %arg2, %arg4] : memref<1x64x64xf32>
            %55 = affine.load %50[%arg4, %arg3] : memref<64x256xf32>
            %56 = affine.load %alloca_189[] : memref<f32>
            %57 = arith.mulf %54, %55 : f32
            %58 = arith.addf %56, %57 : f32
            affine.store %58, %alloca_189[] : memref<f32>
          }
          %53 = affine.load %alloca_189[] : memref<f32>
          affine.store %53, %alloc_188[%arg1, %arg2, %arg3] : memref<1x64x256xf32>
        }
      }
    }
    %alloc_190 = memref.alloc() {alignment = 16 : i64} : memref<1x64x256xf32>
    affine.for %arg1 = 0 to 1 {
      affine.for %arg2 = 0 to 64 {
        affine.for %arg3 = 0 to 256 {
          %53 = affine.load %alloc_188[%c0, %arg2, %arg3] : memref<1x64x256xf32>
          %54 = affine.load %alloc_188[%c0, %arg2, %arg3] : memref<1x64x256xf32>
          %55 = arith.mulf %53, %54 : f32
          affine.store %55, %alloc_190[%arg1, %arg2, %arg3] : memref<1x64x256xf32>
        }
      }
    }
    %alloc_191 = memref.alloc() {alignment = 16 : i64} : memref<1x64x256xf32>
    affine.for %arg1 = 0 to 1 {
      affine.for %arg2 = 0 to 64 {
        affine.for %arg3 = 0 to 256 {
          %53 = affine.load %alloc_190[%c0, %arg2, %arg3] : memref<1x64x256xf32>
          %54 = affine.load %alloc_188[%c0, %arg2, %arg3] : memref<1x64x256xf32>
          %55 = arith.mulf %53, %54 : f32
          affine.store %55, %alloc_191[%arg1, %arg2, %arg3] : memref<1x64x256xf32>
        }
      }
    }
    %alloc_192 = memref.alloc() {alignment = 16 : i64} : memref<1x64x256xf32>
    affine.for %arg1 = 0 to 1 {
      affine.for %arg2 = 0 to 64 {
        affine.for %arg3 = 0 to 256 {
          %53 = affine.load %alloc_191[%c0, %arg2, %arg3] : memref<1x64x256xf32>
          %54 = affine.load %4[] : memref<f32>
          %55 = arith.mulf %53, %54 : f32
          affine.store %55, %alloc_192[%arg1, %arg2, %arg3] : memref<1x64x256xf32>
        }
      }
    }
    %alloc_193 = memref.alloc() {alignment = 16 : i64} : memref<1x64x256xf32>
    affine.for %arg1 = 0 to 1 {
      affine.for %arg2 = 0 to 64 {
        affine.for %arg3 = 0 to 256 {
          %53 = affine.load %alloc_188[%c0, %arg2, %arg3] : memref<1x64x256xf32>
          %54 = affine.load %alloc_192[%c0, %arg2, %arg3] : memref<1x64x256xf32>
          %55 = arith.addf %53, %54 : f32
          affine.store %55, %alloc_193[%arg1, %arg2, %arg3] : memref<1x64x256xf32>
        }
      }
    }
    %alloc_194 = memref.alloc() {alignment = 16 : i64} : memref<1x64x256xf32>
    affine.for %arg1 = 0 to 1 {
      affine.for %arg2 = 0 to 64 {
        affine.for %arg3 = 0 to 256 {
          %53 = affine.load %alloc_193[%c0, %arg2, %arg3] : memref<1x64x256xf32>
          %54 = affine.load %3[] : memref<f32>
          %55 = arith.mulf %53, %54 : f32
          %56 = math.tanh %55 : f32
          affine.store %56, %alloc_194[%arg1, %arg2, %arg3] : memref<1x64x256xf32>
        }
      }
    }
    %alloc_195 = memref.alloc() {alignment = 16 : i64} : memref<1x64x256xf32>
    affine.for %arg1 = 0 to 1 {
      affine.for %arg2 = 0 to 64 {
        affine.for %arg3 = 0 to 256 {
          %53 = affine.load %alloc_194[%c0, %arg2, %arg3] : memref<1x64x256xf32>
          %54 = affine.load %2[] : memref<f32>
          %55 = arith.addf %53, %54 : f32
          affine.store %55, %alloc_195[%arg1, %arg2, %arg3] : memref<1x64x256xf32>
        }
      }
    }
    %alloc_196 = memref.alloc() {alignment = 16 : i64} : memref<1x64x256xf32>
    affine.for %arg1 = 0 to 1 {
      affine.for %arg2 = 0 to 64 {
        affine.for %arg3 = 0 to 256 {
          %53 = affine.load %alloc_188[%c0, %arg2, %arg3] : memref<1x64x256xf32>
          %54 = affine.load %alloc_195[%c0, %arg2, %arg3] : memref<1x64x256xf32>
          %55 = arith.mulf %53, %54 : f32
          affine.store %55, %alloc_196[%arg1, %arg2, %arg3] : memref<1x64x256xf32>
        }
      }
    }
    %alloc_197 = memref.alloc() {alignment = 16 : i64} : memref<1x64x256xf32>
    affine.for %arg1 = 0 to 1 {
      affine.for %arg2 = 0 to 64 {
        affine.for %arg3 = 0 to 256 {
          %53 = affine.load %alloc_196[%c0, %arg2, %arg3] : memref<1x64x256xf32>
          %54 = affine.load %5[] : memref<f32>
          %55 = arith.mulf %53, %54 : f32
          affine.store %55, %alloc_197[%arg1, %arg2, %arg3] : memref<1x64x256xf32>
        }
      }
    }
    %alloc_198 = memref.alloc() {alignment = 16 : i64} : memref<1x64x64xf32>
    %alloca_199 = memref.alloca() : memref<f32>
    affine.for %arg1 = 0 to 1 {
      affine.for %arg2 = 0 to 64 {
        affine.for %arg3 = 0 to 64 {
          affine.store %cst_1, %alloca_199[] : memref<f32>
          affine.for %arg4 = 0 to 256 {
            %54 = affine.load %alloc_197[%arg1, %arg2, %arg4] : memref<1x64x256xf32>
            %55 = affine.load %51[%arg4, %arg3] : memref<256x64xf32>
            %56 = affine.load %alloca_199[] : memref<f32>
            %57 = arith.mulf %54, %55 : f32
            %58 = arith.addf %56, %57 : f32
            affine.store %58, %alloca_199[] : memref<f32>
          }
          %53 = affine.load %alloca_199[] : memref<f32>
          affine.store %53, %alloc_198[%arg1, %arg2, %arg3] : memref<1x64x64xf32>
        }
      }
    }
    %alloc_200 = memref.alloc() {alignment = 16 : i64} : memref<1x64x64xf32>
    affine.for %arg1 = 0 to 1 {
      affine.for %arg2 = 0 to 64 {
        affine.for %arg3 = 0 to 64 {
          %53 = affine.load %alloc_181[%c0, %arg2, %arg3] : memref<1x64x64xf32>
          %54 = affine.load %alloc_198[%c0, %arg2, %arg3] : memref<1x64x64xf32>
          %55 = arith.addf %53, %54 : f32
          affine.store %55, %alloc_200[%arg1, %arg2, %arg3] : memref<1x64x64xf32>
        }
      }
    }
    %alloc_201 = memref.alloc() {alignment = 16 : i64} : memref<1x64x1xf32>
    affine.for %arg1 = 0 to 1 {
      affine.for %arg2 = 0 to 64 {
        affine.for %arg3 = 0 to 1 {
          affine.store %cst_1, %alloc_201[%arg1, %arg2, %arg3] : memref<1x64x1xf32>
        }
      }
    }
    affine.for %arg1 = 0 to 1 {
      affine.for %arg2 = 0 to 64 {
        affine.for %arg3 = 0 to 64 {
          %53 = affine.load %alloc_200[%arg1, %arg2, %arg3] : memref<1x64x64xf32>
          %54 = affine.load %alloc_201[%arg1, %arg2, %c0] : memref<1x64x1xf32>
          %55 = arith.addf %54, %53 : f32
          affine.store %55, %alloc_201[%arg1, %arg2, %c0] : memref<1x64x1xf32>
        }
      }
    }
    affine.for %arg1 = 0 to 1 {
      affine.for %arg2 = 0 to 64 {
        affine.for %arg3 = 0 to 1 {
          %53 = affine.load %alloc_201[%arg1, %arg2, %arg3] : memref<1x64x1xf32>
          %54 = arith.divf %53, %cst : f32
          affine.store %54, %alloc_201[%arg1, %arg2, %arg3] : memref<1x64x1xf32>
        }
      }
    }
    %alloc_202 = memref.alloc() {alignment = 16 : i64} : memref<1x64x64xf32>
    affine.for %arg1 = 0 to 1 {
      affine.for %arg2 = 0 to 64 {
        affine.for %arg3 = 0 to 64 {
          %53 = affine.load %alloc_200[%c0, %arg2, %arg3] : memref<1x64x64xf32>
          %54 = affine.load %alloc_201[%c0, %arg2, %c0] : memref<1x64x1xf32>
          %55 = arith.subf %53, %54 : f32
          affine.store %55, %alloc_202[%arg1, %arg2, %arg3] : memref<1x64x64xf32>
        }
      }
    }
    %alloc_203 = memref.alloc() {alignment = 16 : i64} : memref<1x64x64xf32>
    affine.for %arg1 = 0 to 1 {
      affine.for %arg2 = 0 to 64 {
        affine.for %arg3 = 0 to 64 {
          %53 = affine.load %alloc_202[%c0, %arg2, %arg3] : memref<1x64x64xf32>
          %54 = affine.load %alloc_202[%c0, %arg2, %arg3] : memref<1x64x64xf32>
          %55 = arith.mulf %53, %54 : f32
          affine.store %55, %alloc_203[%arg1, %arg2, %arg3] : memref<1x64x64xf32>
        }
      }
    }
    %alloc_204 = memref.alloc() {alignment = 16 : i64} : memref<1x64x1xf32>
    affine.for %arg1 = 0 to 1 {
      affine.for %arg2 = 0 to 64 {
        affine.for %arg3 = 0 to 1 {
          affine.store %cst_1, %alloc_204[%arg1, %arg2, %arg3] : memref<1x64x1xf32>
        }
      }
    }
    affine.for %arg1 = 0 to 1 {
      affine.for %arg2 = 0 to 64 {
        affine.for %arg3 = 0 to 64 {
          %53 = affine.load %alloc_203[%arg1, %arg2, %arg3] : memref<1x64x64xf32>
          %54 = affine.load %alloc_204[%arg1, %arg2, %c0] : memref<1x64x1xf32>
          %55 = arith.addf %54, %53 : f32
          affine.store %55, %alloc_204[%arg1, %arg2, %c0] : memref<1x64x1xf32>
        }
      }
    }
    affine.for %arg1 = 0 to 1 {
      affine.for %arg2 = 0 to 64 {
        affine.for %arg3 = 0 to 1 {
          %53 = affine.load %alloc_204[%arg1, %arg2, %arg3] : memref<1x64x1xf32>
          %54 = arith.divf %53, %cst : f32
          affine.store %54, %alloc_204[%arg1, %arg2, %arg3] : memref<1x64x1xf32>
        }
      }
    }
    %alloc_205 = memref.alloc() {alignment = 16 : i64} : memref<1x64x1xf32>
    affine.for %arg1 = 0 to 1 {
      affine.for %arg2 = 0 to 64 {
        affine.for %arg3 = 0 to 1 {
          %53 = affine.load %alloc_204[%c0, %arg2, %c0] : memref<1x64x1xf32>
          %54 = affine.load %1[] : memref<f32>
          %55 = arith.addf %53, %54 : f32
          %56 = math.sqrt %55 : f32
          affine.store %56, %alloc_205[%arg1, %arg2, %arg3] : memref<1x64x1xf32>
        }
      }
    }
    %alloc_206 = memref.alloc() {alignment = 16 : i64} : memref<1x64x64xf32>
    affine.for %arg1 = 0 to 1 {
      affine.for %arg2 = 0 to 64 {
        affine.for %arg3 = 0 to 64 {
          %53 = affine.load %alloc_202[%c0, %arg2, %arg3] : memref<1x64x64xf32>
          %54 = affine.load %alloc_205[%c0, %arg2, %c0] : memref<1x64x1xf32>
          %55 = arith.divf %53, %54 : f32
          affine.store %55, %alloc_206[%arg1, %arg2, %arg3] : memref<1x64x64xf32>
        }
      }
    }
    %alloc_207 = memref.alloc() {alignment = 16 : i64} : memref<1x64x65xf32>
    %alloca_208 = memref.alloca() : memref<f32>
    affine.for %arg1 = 0 to 1 {
      affine.for %arg2 = 0 to 64 {
        affine.for %arg3 = 0 to 65 {
          affine.store %cst_1, %alloca_208[] : memref<f32>
          affine.for %arg4 = 0 to 64 {
            %54 = affine.load %alloc_206[%arg1, %arg2, %arg4] : memref<1x64x64xf32>
            %55 = affine.load %52[%arg4, %arg3] : memref<64x65xf32>
            %56 = affine.load %alloca_208[] : memref<f32>
            %57 = arith.mulf %54, %55 : f32
            %58 = arith.addf %56, %57 : f32
            affine.store %58, %alloca_208[] : memref<f32>
          }
          %53 = affine.load %alloca_208[] : memref<f32>
          affine.store %53, %alloc_207[%arg1, %arg2, %arg3] : memref<1x64x65xf32>
        }
      }
    }
    return %alloc_207 : memref<1x64x65xf32>
  }
  "krnl.entry_point"() {func = @main_graph, numInputs = 1 : i32, numOutputs = 1 : i32, signature = "[    { \22type\22 : \22i64\22 , \22dims\22 : [1 , 64] , \22name\22 : \22input\22 }\0A\0A]\00@[   { \22type\22 : \22f32\22 , \22dims\22 : [1 , 64 , 65] , \22name\22 : \22output\22 }\0A\0A]\00"} : () -> ()
}
