#map = affine_map<(d0) -> (0, d0 * 2)>
#map1 = affine_map<(d0) -> (28, d0 * -2 + 28, d0 * 2 + 2, 2)>
module {
  func.func @main_graph(%arg0: memref<1x1x28x28xf32>) -> memref<1x10xf32> attributes {input_names = ["image"], llvm.emit_c_interface, output_names = ["prediction"]} {
    %cst = arith.constant 0.000000e+00 : f32
    %cst_0 = arith.constant 0xFF800000 : f32
    %0 = "krnl.global"() {name = "constant_0", shape = [128, 196], value = dense<"…"> : tensor<128x196xf32>} : () -> memref<128x196xf32>
    %1 = "krnl.global"() {name = "constant_1", shape = [128], value = dense<"…"> : tensor<128xf32>} : () -> memref<128xf32>
    %2 = "krnl.global"() {name = "constant_2", shape = [10, 128], value = dense<"…"> : tensor<10x128xf32>} : () -> memref<10x128xf32>
    %3 = "krnl.global"() {name = "constant_3", shape = [10], value = dense<[0.0360819325, 0.0303174332, -0.014957685, 0.0604293533, 0.0917338133, 0.0978015586, -0.0705472528, 0.121654645, -0.039008636, -0.0469057448]> : tensor<10xf32>} : () -> memref<10xf32>
    %alloc = memref.alloc() {alignment = 16 : i64} : memref<1x1x14x14xf32>
    %alloca = memref.alloca() : memref<f32>
    affine.for %arg1 = 0 to 1 {
      affine.for %arg2 = 0 to 1 {
        affine.for %arg3 = 0 to 14 {
          affine.for %arg4 = 0 to 14 {
            affine.store %cst_0, %alloca[] : memref<f32>
            %4 = affine.max #map(%arg3)
            %5 = affine.max #map(%arg4)
            affine.for %arg5 = 0 to min #map1(%arg3) {
              affine.for %arg6 = 0 to min #map1(%arg4) {
                %7 = arith.addi %arg5, %4 : index
                %8 = arith.addi %arg6, %5 : index
                %9 = memref.load %arg0[%arg1, %arg2, %7, %8] : memref<1x1x28x28xf32>
                %10 = affine.load %alloca[] : memref<f32>
                %11 = arith.cmpf ogt, %10, %9 : f32
                %12 = arith.select %11, %10, %9 : f32
                affine.store %12, %alloca[] : memref<f32>
              }
            }
            %6 = affine.load %alloca[] : memref<f32>
            affine.store %6, %alloc[%arg1, %arg2, %arg3, %arg4] : memref<1x1x14x14xf32>
          }
        }
      }
    }
    %reinterpret_cast = memref.reinterpret_cast %alloc to offset: [0], sizes: [1, 196], strides: [196, 1] : memref<1x1x14x14xf32> to memref<1x196xf32>
    %alloc_1 = memref.alloc() {alignment = 128 : i64} : memref<1x128xf32>
    %alloc_2 = memref.alloc() : memref<196xf32>
    %alloc_3 = memref.alloc() : memref<196xf32>
    affine.for %arg1 = 0 to 1 {
      affine.for %arg2 = 0 to 128 {
        affine.for %arg3 = 0 to 196 {
          %7 = affine.load %reinterpret_cast[%arg1, %arg3] : memref<1x196xf32>
          %8 = affine.load %0[%arg2, %arg3] : memref<128x196xf32>
          affine.store %7, %alloc_2[%arg3] : memref<196xf32>
          affine.store %8, %alloc_3[%arg3] : memref<196xf32>
        }
        %4 = "zkML.dot-product"(%alloc_2, %alloc_3) : (memref<196xf32>, memref<196xf32>) -> f32
        %5 = affine.load %1[%arg2] : memref<128xf32>
        %6 = arith.addf %4, %5 : f32
        affine.store %6, %alloc_1[%arg1, %arg2] : memref<1x128xf32>
      }
    }
    memref.dealloc %alloc_2 : memref<196xf32>
    memref.dealloc %alloc_3 : memref<196xf32>
    %alloc_4 = memref.alloc() {alignment = 16 : i64} : memref<1x128xf32>
    affine.for %arg1 = 0 to 1 {
      affine.for %arg2 = 0 to 128 {
        %4 = affine.load %alloc_1[%arg1, %arg2] : memref<1x128xf32>
        %5 = arith.cmpf oge, %4, %cst : f32
        %6 = arith.select %5, %4, %cst : f32
        affine.store %6, %alloc_4[%arg1, %arg2] : memref<1x128xf32>
      }
    }
    %alloc_5 = memref.alloc() {alignment = 128 : i64} : memref<1x10xf32>
    %alloc_6 = memref.alloc() : memref<128xf32>
    %alloc_7 = memref.alloc() : memref<128xf32>
    affine.for %arg1 = 0 to 1 {
      affine.for %arg2 = 0 to 10 {
        affine.for %arg3 = 0 to 128 {
          %7 = affine.load %alloc_4[%arg1, %arg3] : memref<1x128xf32>
          %8 = affine.load %2[%arg2, %arg3] : memref<10x128xf32>
          affine.store %7, %alloc_6[%arg3] : memref<128xf32>
          affine.store %8, %alloc_7[%arg3] : memref<128xf32>
        }
        %4 = "zkML.dot-product"(%alloc_6, %alloc_7) : (memref<128xf32>, memref<128xf32>) -> f32
        %5 = affine.load %3[%arg2] : memref<10xf32>
        %6 = arith.addf %4, %5 : f32
        affine.store %6, %alloc_5[%arg1, %arg2] : memref<1x10xf32>
      }
    }
    memref.dealloc %alloc_6 : memref<128xf32>
    memref.dealloc %alloc_7 : memref<128xf32>
    %alloc_8 = memref.alloc() {alignment = 16 : i64} : memref<1x10xf32>
    %alloc_9 = memref.alloc() : memref<f32>
    %alloc_10 = memref.alloc() : memref<f32>
    affine.for %arg1 = 0 to 1 {
      affine.store %cst, %alloc_9[] : memref<f32>
      affine.store %cst_0, %alloc_10[] : memref<f32>
      affine.for %arg2 = 0 to 10 {
        %6 = affine.load %alloc_10[] : memref<f32>
        %7 = affine.load %alloc_5[%arg1, %arg2] : memref<1x10xf32>
        %8 = arith.cmpf ogt, %6, %7 : f32
        %9 = arith.select %8, %6, %7 : f32
        affine.store %9, %alloc_10[] : memref<f32>
      }
      %4 = affine.load %alloc_10[] : memref<f32>
      affine.for %arg2 = 0 to 10 {
        %6 = affine.load %alloc_9[] : memref<f32>
        %7 = affine.load %alloc_5[%arg1, %arg2] : memref<1x10xf32>
        %8 = arith.subf %7, %4 : f32
        %9 = math.exp %8 : f32
        %10 = arith.addf %6, %9 : f32
        affine.store %10, %alloc_9[] : memref<f32>
        affine.store %9, %alloc_8[%arg1, %arg2] : memref<1x10xf32>
      }
      %5 = affine.load %alloc_9[] : memref<f32>
      affine.for %arg2 = 0 to 10 {
        %6 = affine.load %alloc_8[%arg1, %arg2] : memref<1x10xf32>
        %7 = arith.divf %6, %5 : f32
        affine.store %7, %alloc_8[%arg1, %arg2] : memref<1x10xf32>
      }
    }
    return %alloc_8 : memref<1x10xf32>
  }
  "krnl.entry_point"() {func = @main_graph, numInputs = 1 : i32, numOutputs = 1 : i32, signature = "[    { \22type\22 : \22f32\22 , \22dims\22 : [1 , 1 , 28 , 28] , \22name\22 : \22image\22 }\0A\0A]\00@[   { \22type\22 : \22f32\22 , \22dims\22 : [1 , 10] , \22name\22 : \22prediction\22 }\0A\0A]\00"} : () -> ()
}
